src/saved_models/warehouse_stage1_ppo_raycasts_seed42.pth (torch, 274730 bytes, 33 tensors)

actor.0.weight f4 [64, 100]
00000000: deb0 113d d29a 16be d358 5abc 68d7 11be
00000010: 37ac ccbb 5508 443b b059 46bd 2a2c 123e
00000020: 41d8 debd eb8e 0ebd 9e83 00be 5b79 11be
00000030: 793c 343e bcf0 053e ffaa 063d 3008 8e3d
00000040: 67b7 ddbd d02f 9c3d 240b 2ebd 3e4c 8f3c
00000050: a9ff 14be 2676 1ebe b24a dd3d 7ac1 a43d
00000060: 37cf 773d be6f 833d 27d8 9fbb 63d2 08be
00000070: 5726 24bc f5fc 36bd e62f 5ebd cc94 43bd
00000080: 50c4 cc3c 4138 303e 2bdc 36be a612 003e
00000090: 3ddf af3c 0078 f4bd f57d 09bd 5d23 013e
000000a0: a854 85be 64fb 203e 3f3b 563c 144e cdbb
000000b0: 2116 c73b 1142 6b3d b76b 3cbe 349c 633c
000000c0: 7325 82bb 1e32 b7bc 4a8c 363e fcbf 91bd
000000d0: 5951 ed3d 1a55 06be 1f30 a93c f49d ad3d
000000e0: d90b c0bd fe25 aa3d cc7b aabd 2036 b03d
000000f0: 8f06 46bd 8d4a 3b3e cd21 11be 3752 01bd
00000100: afff 91bd ad30 ca3d c1e1 f73b edf5 36be
00000110: e94e 85bb 9173 4c3e 662d 88bd d72a b93d
00000120: bfc7 6e3d 53b3 78bd b41d a7bd 07b1 d83c
00000130: b5d3 c7bd aaf1 a33d 8a9a 7e3c 3b8d 03bd
00000140: 9e7d d9bd 9c3d 9c3d 83f1 033d bc0b 503e
00000150: 3075 ee3d 54d9 8d3d d9e5 37bd fec0 27be
00000160: 08c0 153b 18f4 ccba c82b 9cbd 6eda ad3d
00000170: cf6c 99bd 5116 033e e9fb 943d 88dc acbd
00000180: 0d5b 40bd 4a78 f9bd 20a9 2cbd 197e c93d
00000190: 9eec 003c 7b8d ae3d 81e4 07be 0b74 f63c
000001a0: dbfc 90bc 06ae 443b 70c3 873d f930 d23c
000001b0: 5f71 eabd 2ae3 433d 8562 52bd c1bd b5bd
000001c0: 44e6 1cbe ac8a 7c3d 2ce9 903d b839 06bd
000001d0: b738 013c ed1e db3d 3f04 37bc ebff 3c3d
000001e0: edce 40be 8247 2abd 8cad 4dbe 6d09 7dbd
000001f0: 806f 85bd a1e5 88bd fd56 ae3d 50a5 23bd
00000200: 34be d7bd a0e1 b2bd 588e 6f3c 55f3 fd3d
00000210: 5033 d3bd 2664 6abc 4648 38bd cf2d 643d
00000220: a83a ba3d d90c 243e 67e2 13bc 7f4d 283d
00000230: 0fbd 16bd 9ede e0bd 1749 d8bc b8b1 abbd
00000240: 05e6 c1bd 02ea 083e ca3a cb3d 9df2 ecbc
00000250: 798b 173d f9ea e03c 3ae6 47bd 3b30 4fbd
00000260: 10c1 9dbd a8ea e03d f2b4 f33d 0433 5f3d
00000270: 81e1 ab3b 91e6 8b3d da50 2d3d 23d0 d2bb
00000280: 6ae3 d9bd 0f91 29be 274e 6cbd 6504 0b3d
00000290: a70c 323c 82db df3c 4d71 bbbd 6afd 58be
000002a0: b306 e0bd 8faf 20be fb03 b0bd a4ad 4dbd
000002b0: 7536 80bd 9200 2fbd ed7e 1cbe 53eb b8bd
000002c0: 9a0c 8dbd 50cb 84bd 5d66 debd e3a3 903d
000002d0: a865 673e 5b44 e7bd b6d7 efbc 7bfc a2bb
000002e0: fab5 843d d2d9 223e b813 aebd ee5a 25be
000002f0: 74ea 063e 1741 1dbe 85a6 7bbe 992b 4c3e
00000300: e091 123d 514c 9bbd 1f8d 92be 0802 c93c
00000310: fae2 7dbd 4fd4 1ebe fffd 3dbd 843e 9f39
00000320: 0965 84bd a370 1f3c 8ec6 b8bd a692 d8bd
00000330: 6fee c93c 41af 2f3d 72dc 0b3d e438 4abc
00000340: 638e 59bd c987 1bbc dcad 12bd 591a 07bd
00000350: 7630 b73c 1391 283e 2a41 a43d 0c56 b2bb
00000360: 6113 bbbd 3cb4 053e b4ef 56bd 3919 92bd
00000370: da72 e9bc a374 cd3d c227 413e 586f 143e
00000380: 9097 013e 0456 ae3d 7c0d d9bc 93e5 013d
00000390: cf7b fe3c 08ac 05be dc20 a43d 7b0f 3ebe
000003a0: ac0d 39be ad97 933d 1462 523e deff 8abd
000003b0: fa54 aebd 180c 7f3c 0844 5ebd 3a0b 73bd
000003c0: 80a7 3fbc 542b d6bc 9d23 09be 4c23 433d
000003d0: 7a46 f33c 6b4e 99bd 5345 a5bc 6e86 3cbd
000003e0: 8386 1dbc ea73 bb3d 51ca 19be 0c5e b6bd
000003f0: abdf 2ebd 1719 13bd ab54 42bd a7ee 1d3e
0.035569064 -0.14707497 -0.013326841 -0.14242327 -0.0062461155 0.0029912193 -0.048425376 0.1427466
-0.10881091 -0.034804266 -0.12550208 -0.1420645 0.17601193 0.13080114 0.03287792 0.069351554
-0.10825997 0.07626307 -0.042491093 0.01749241 -0.14550652 -0.15474758 0.108052626 0.08044715
0.06050035 0.064177975 -0.0048780623 -0.13361506 -0.010018907 -0.044674832 -0.0542449 -0.047749326
0.024995953 0.17208959 -0.17857425 0.12507114 0.021468753 -0.11936951 -0.033567388 0.12611146
-0.2604115 0.15720898 0.013075649 -0.006265411 0.006075636 0.057436053 -0.18400465 0.013892222
-0.0039717495 -0.022362765 0.17826954 -0.07116696 0.115877815 -0.13118401 0.020652829 0.08477393
-0.0937726 0.08308028 -0.08324394 0.086040735 -0.0483461 0.18290158 -0.1417305 -0.031572547
-0.07128846 0.098725654 0.0075647538 -0.1786725 -0.0040682447 0.1996596 -0.06649284 0.09041374
0.05829596 -0.060717892 -0.08159962 0.0264516 -0.09757177 0.08005078 0.015539775 -0.03211711
-0.10619663 0.076289386 0.032212745 0.20316976 0.116434455 0.06926218 -0.044896934 -0.16382214
0.0022850055 -0.001563671 -0.07625538 0.08488928 -0.07491457 0.12801482 0.072746105 -0.084405005
-0.046961833 -0.121811464 -0.042153478 0.09838504 0.007868914 0.08523079 -0.13270761 0.03008463
-0.017698696 0.0030010953 0.066290736 0.025658118 -0.11447405 0.047824062 -0.051363487 -0.08874083
-0.15322214 0.061655685 0.07075724 -0.03276989 0.007887057 0.10699258 -0.011170446 0.0461425
-0.18828936 -0.0415721 -0.20085734 -0.061776567 -0.065154076 -0.06684423 0.085126854 -0.039952576
-0.10534325 -0.08734441 0.01462134 0.123999275 -0.103125215 -0.014306104 -0.0449908 0.05570775
0.09093219 0.16020526 -0.0090261465 0.04108953 -0.036801394 -0.10979961 -0.02640204 -0.083835065
-0.09467701 0.13370517 0.099233225 -0.02892428 0.036998246 0.027455794 -0.048803546 -0.050583106
-0.077028394 0.10982257 0.11899747 0.05449201 0.005245388 0.068310864 0.042313434 -0.0064335032
-0.10639079 -0.16559242 -0.05769172 0.033939738 0.010867274 0.02732635 -0.0915247 -0.2119042
-0.10938778 -0.1569197 -0.08594509 -0.050214425 -0.06260387 -0.042725153 -0.15282793 -0.090292595
-0.06887169 -0.06484091 -0.10859368 0.07062509 0.22597373 -0.11292335 -0.029277664 -0.0049739457
0.06480022 0.15903404 -0.08499855 -0.16147968 0.13175374 -0.15356861 -0.24575241 0.19938506
0.03578365 -0.075829156 -0.28623292 0.024537101 -0.06198404 -0.15510677 -0.046384808 0.0003037342
-0.064645834 0.0097314445 -0.09022246 -0.10574846 0.024649827 0.042891745 0.03414578 -0.012342665
-0.053114306 -0.009492823 -0.035810336 -0.03298411 0.022361975 0.16461591 0.080202416 -0.0054423865
-0.091345556 0.13057035 -0.052474692 -0.07133717 -0.028497148 0.10032012 0.18862823 0.144956
0.12655473 0.085125 -0.026495688 0.03171308 0.031064896 -0.13053906 0.0801408 -0.18560593
-0.18071622 0.07206664 0.20545226 -0.06787084 -0.08512302 0.015566848 -0.0542641 -0.05933688
-0.01169765 -0.026143707 -0.13392492 0.047641084 0.029696692 -0.0748566 -0.020174658 -0.04602664
-0.00961459 0.09152968 -0.15018584 -0.08904657 -0.042693775 -0.0359126 -0.047444027 0.1542307

actor.0.bias f4 [64]
00000000: c10f 5fbb a4b6 d0b9 5e61 5439 e2db c3ba
00000010: a9cc c7ba b8d0 793b d123 6db9 4fcc 303a
00000020: 0adf 2eba ebbe 9f3a d6dd 79b9 5673 15bb
00000030: 89ae ce3a e716 7039 9957 7e3a 308c c2ba
00000040: 777f 8cba bbc4 183b 38be 8dba 1457 3dba
00000050: af86 84bb ffea 25b9 8e77 8d3a ec30 a93a
00000060: aa1b 9d3b b84c 9c3b aec8 b4b9 d2d1 203a
00000070: a0f7 423a 587b 8fba 7a45 11ba 6313 11b4
00000080: e861 f53a d140 2d3a 6780 dc3a 846a 7f3a
00000090: 782b 863b d824 213a 0ef0 753b 1fe9 06bb
000000a0: c051 c13a 28df b539 9852 f93a bd2f 81bb
000000b0: 5734 22bb 1886 4a39 e6eb 8b3a 2042 26bb
000000c0: 89ba 983a 3e9f a23a 5eab ddba a122 21bb
000000d0: 2fbd 593b e5d6 0f3b ae6b 983a c588 de39
000000e0: 2fa3 5abb 539b 05ba 5bb4 f938 bd30 04bb
000000f0: 61fb e9ba eadc a83b 51ab d338 ac68 823a
-0.003403649 -0.0003980893 0.00020254168 -0.001494285 -0.0015243489 0.003811879 -0.00022615424 0.00067443115
-0.00066708087 0.0012187635 -0.00023829131 -0.0022804341 0.0015768568 0.00022896715 0.0009702384 -0.0014842805
-0.001071914 0.002331062 -0.0010814136 -0.00072227535 -0.004044376 -0.00015823169 0.0010793076 0.0012908257
0.0047945576 0.004769888 -0.00034481793 0.0006134781 0.00074374117 -0.0010946793 -0.0005541664 -1.351123e-07
0.0018721195 0.00066090847 0.0016822935 0.000974335 0.0040945373 0.0006147153 0.0037527117 -0.0020585728
0.0014749095 0.00034689275 0.0019021807 -0.0039424584 -0.0024750435 0.00019314175 0.0010675162 -0.0025369003
0.0011652271 0.0012407077 -0.0016912033 -0.002458729 0.0033224334 0.0021948155 0.0011628771 0.0004244504
-0.0033361425 -0.00050966925 0.00011906839 -0.0020170652 -0.0017851406 0.005153288 0.00010093174 0.0009949408

actor.2.weight f4 [64, 64]
00000000: 08b9 24be 3a40 7b3d 5c7d f7bb 1f19 17be
00000010: 3bba 003e ea21 66be e5dd 613d 9f3d 1fbe
00000020: 2ed7 453c 0637 113d d17f 8dbd 085b 25be
00000030: 36c5 983b fe71 523e 0c06 35be 9545 6ebd
00000040: b888 123e 2134 58bc 3788 46bd cae5 13be
00000050: 6bd5 2b3e 7c09 a1bd 8c23 f63d e5f8 79bc
00000060: f540 aabe 1880 0f3e 8d12 5a3d 7da5 0bbc
00000070: ab6a 723e 8770 c5bc ea38 ab3e fbe5 91bd
00000080: 78bc 8a3d bcd0 d23d a7cf a43d cc57 68bb
00000090: 691f 13be 5663 02bc 9763 18bd 5caf 9d3d
000000a0: ccb9 c8bd f3f9 2b3c af0a 9fbd 7885 5b3d
000000b0: 4929 e93a 521d debd 17d0 58bd dce0 c83d
000000c0: 11e1 f5bc 0db5 513d 1b06 90bc f1bf f5bd
000000d0: 1ad4 30be 72f1 203e a3a2 8b3d 145c 88bd
000000e0: 592c f73d 3590 18be 3e70 2fbe 53f4 b83d
000000f0: 0474 85bd 8c9c 2c3e 203c 7f3e aa85 8e3d
00000100: 4c15 943d 10d5 003e 4318 ff3d 5476 95be
00000110: a670 74bd ab89 94be a285 40be dcb3 43bd
00000120: 89b7 dabd 28a2 cdbc 54f4 c2bd 2805 04be
00000130: 026d 27bd 8eb5 443d cb6a 213c daa5 12be
00000140: f60e 2d3e e754 5bbd 1b94 663e 9f6d 423e
00000150: 2e14 d9bb 0cb5 ce3d e142 173d 79e3 643d
00000160: 0ab6 a2bd 4f6a 173d e8ac 16bd 61f9 653e
00000170: 394e 1cbe 3881 0dbe 07c8 46be c118 bc3c
00000180: 6b20 a7be bcbc acbd c080 d6bd 9c90 823d
00000190: 502e d33c b97a f5bc 07d4 87bd ce9b 5e3e
000001a0: 0e91 1e3e 20f8 a13d 9840 60be dd69 68bd
000001b0: 3c8f 5fbc 1c77 813c 060b 7c3c e9f4 813c
000001c0: 38b8 323c fb39 b93c 944b 593d ff9c eb3d
000001d0: 0e86 263e ecec 373b 5d7a 723e 422a 86bd
000001e0: f968 293e e8d4 70bd 97a9 5abd 6daf 55bd
000001f0: cc6e 223c 0041 7abd bd5c 3abd ecff d7bd
00000200: cc57 533c dcc6 d1bd cceb 98bd 64b8 debc
00000210: d520 0e3e 354e a6bd 22e3 013e 52c9 7dbd
00000220: e69b 4abd befc 563c d779 e7bc c9f2 9c3e
00000230: 42d2 4ebe 5d56 393d ca9c 163c 26a0 38bc
00000240: 6772 8e3d 629e 853e 10d9 043d 2bf3 4c3e
00000250: 32bc 063c ee2c a2bb 9c9b 333d dd5a 0e3c
00000260: 6009 ee3b 44db 153e fdb3 93bd bd22 1fbe
00000270: 75df cc3d 14dc 48be 8ea4 bebd a0d0 093e
00000280: 8a00 293e 5f57 163a a90e 7fba 8109 ae3d
00000290: 01ac a9bd f3e2 f3bc 6d67 b83d 6970 40bd
000002a0: 95f9 9e3c 4375 103c 81a3 8a3c 8d5c cc3d
000002b0: 1c1a 9fbe d525 9fbd 5cf5 663e f7fb c23e
000002c0: 6f28 353e ee20 823d 54f1 423e e364 793d
000002d0: 4212 b8bc 35af 5a3d 9f50 0e3e 398e 00be
000002e0: 7ac4 453d ade1 513e efce 0c3e a1cc da3c
000002f0: 83c7 d43d 8e3d 49bc 7dee 16bd 5c06 b73c
00000300: 473a c43c e2b0 cc3d bb8d af3d 0257 163e
00000310: 9f9e be3d b5db 013e 547a 2fbe 2595 8c3d
00000320: 2de6 1e3d 4cd2 573e 592e d7b9 23bf 9bbc
00000330: d4e4 a4bc 0bb2 173d efda 89bd 8973 213d
00000340: aa89 6bbe 3aee a43d e0b1 75bd b33a 863c
00000350: 249c 77bd 599b 3ebe bbdc 75bc fa54 153c
00000360: 5951 6dbe 7a76 e03d 4e6b 7f3c cfaa a53c
00000370: a3fa 3cbd cb55 8b3c 62fb 133e 8146 2bbe
00000380: 79b5 edbd 5158 5cbe adc9 1e3d 71c2 8dbd
00000390: 9a9e 253e 1f5e e8bd 1511 3dbe 9f14 3e3d
000003a0: 60a8 5fbd 6f99 ccbc c4b3 1abd a1ad 653e
000003b0: 4250 243d 151c 713c fc61 223e 5eb1 873d
000003c0: 1597 92be 023c 48be c09c 3d3e d9b1 9fbd
000003d0: 496b 0e3d e967 513e 411e 383e 20ab 57be
000003e0: 1dd3 c6bd d1de 0b3d e745 983d d338 30be
000003f0: 9fcd 523d eac7 e7bd f052 58be 1fe5 ce3d
-0.16086209 0.061340548 -0.007552786 -0.14755677 0.12571041 -0.22473875 0.055143256 -0.1555085
0.012075229 0.035452865 -0.06909145 -0.16148007 0.0046621813 0.20551297 -0.17678088 -0.058171827
0.14309967 -0.013196022 -0.04846975 -0.14443126 0.16780631 -0.07863137 0.12018499 -0.015257095
-0.33252683 0.14013708 0.053240348 -0.008523342 0.23673503 -0.024101509 0.3344186 -0.071239434
0.06774229 0.10293719 0.08047419 -0.0035452722 -0.14367451 -0.007958254 -0.03720435 0.07699463
-0.09801063 0.010496604 -0.077657096 0.053594083 0.0017788793 -0.10845436 -0.052932825 0.098085135
-0.030014547 0.051198054 -0.017581036 -0.119995005 -0.1726841 0.15717104 0.0681813 -0.066581875
0.120690055 -0.1489876 -0.17132661 0.09030976 -0.06516269 0.16856593 0.2492528 0.06959088
0.072306246 0.12581277 0.124557994 -0.2919184 -0.059677742 -0.29011282 -0.18800977 -0.04777895
-0.10679538 -0.025101736 -0.09519258 -0.12892592 -0.040875442 0.048024707 0.009852122 -0.1432108
0.16900238 -0.053547766 0.22517435 0.1898713 -0.00662472 0.10093126 0.036929015 0.055880997
-0.079448774 0.03696662 -0.03678599 0.22458412 -0.15264215 -0.13818824 -0.19412242 0.022961022
-0.3264192 -0.08434436 -0.10473776 0.06375238 0.02577892 -0.029965745 -0.06632238 0.21739122
0.15485021 0.07908654 -0.2189964 -0.056741584 -0.01364499 0.015803866 0.015383488 0.015863853
0.010908179 0.022610655 0.053050593 0.11504554 0.16262075 0.00280648 0.2367949 -0.06551029
0.1654395 -0.058796793 -0.05338439 -0.052169252 0.009914111 -0.061097145 -0.0454986 -0.1054686
0.01289935 -0.102430075 -0.0746685 -0.027187534 0.13879712 -0.081203856 0.126843 -0.061959572
-0.049465083 0.013121782 -0.02825634 0.3065398 -0.20197394 0.045248378 0.009192655 -0.011268651
0.06955414 0.260974 0.03243357 0.20014636 0.00822358 -0.0049492037 0.043849573 0.008688656
0.007264301 0.14634424 -0.072120644 -0.15540595 0.100035585 -0.19615203 -0.0930873 0.1345849
0.16504112 0.0005735065 -0.00097296626 0.084979065 -0.0828476 -0.029771304 0.09004102 -0.046982203
0.01940612 0.00881702 0.016923668 0.0997859 -0.31074607 -0.07770888 0.22554535 0.3808286
0.17691205 0.06353937 0.19037372 0.06088723 -0.022469644 0.053389747 0.13897942 -0.12554254
0.048283078 0.20496245 0.13750814 0.026708903 0.10389616 -0.012282742 -0.036848534 0.0223419
0.02395357 0.09994675 0.08571955 0.14681628 0.09307598 0.12681468 -0.17136508 0.068643846
0.03879373 0.21076316 -0.00041042527 -0.01901204 -0.020128645 0.03703503 -0.067312114 0.039416824
-0.23001733 0.080532506 -0.059984088 0.016385412 -0.06045164 -0.18613948 -0.0150062395 0.009114498
-0.23175563 0.109600976 0.015589548 0.02022305 -0.046137463 0.017008683 0.14451364 -0.16726114
-0.11606879 -0.21518065 0.03876655 -0.069218524 0.16173783 -0.11346077 -0.18463548 0.046406385
-0.054603934 -0.024975507 -0.037769094 0.22429515 0.040115602 0.014716168 0.1585769 0.06625627
-0.2863089 -0.19554141 0.18516827 -0.077975936 0.034770284 0.20449795 0.17980291 -0.21061373
-0.097082354 0.03414804 0.07435208 -0.17209177 0.051465627 -0.113174275 -0.21125388 0.10102295

actor.2.bias f4 [64]
00000000: 6591 dfba 4bc9 e2b9 d4af 36b8 e49b 12bb
00000010: 8aac 933a 4e85 d139 d041 3a3a fbe0 51b9
00000020: 8b7d 0fba e135 2cba 1dc9 53ba d98f 9bba
00000030: 8335 86ba 1043 8b3a b5e3 e239 b6cb c739
00000040: 8f77 5bba 0d2d 00ba decc 5a3a d34f 853a
00000050: b2b7 85bb a49a a939 3adb 5539 173b 1cbb
00000060: 49ad 913a 9e58 4139 8a59 7d3a fdee f5ba
00000070: 2849 89bb e657 eb39 d39d 133b afa9 a03a
00000080: 0ac4 1bba 5002 63ba e29e ccba 3945 ffba
00000090: 2f5f 5f3a 64ca 8e3a 5e75 1aba 12ba d3b9
000000a0: 9a4a c2ba 8c5e c43a 238e 42ba a402 a3ba
000000b0: a2f5 c33a 81db 8a3a ee1c d0ba 6efa 143b
000000c0: 838b 36b9 d6ae d1ba 7936 88b6 07b9 9abb
000000d0: e9f1 9a39 5840 aeba 9bfb 2d3b 337a 2138
000000e0: 5983 993a 7ef0 fdb9 48a1 11ba 9a74 943a
000000f0: dbb0 053b 2ed7 e2ba 90d7 93ba 6bb7 1936
-0.0017056881 -0.00043256054 -4.3555934e-05 -0.002237075 0.0011266631 0.00039962906 0.0007105144 -0.00020015605
-0.00054737244 -0.0006569308 -0.00080789794 -0.0011868431 -0.0010239336 0.0010624845 0.00043275734 0.00038108014
-0.00083720026 -0.00048895256 0.00083465676 0.0010170884 -0.004080736 0.00032349408 0.00020394931 -0.0023838931
0.0011114265 0.00018438927 0.00096645264 -0.0018763241 -0.004189629 0.00044888182 0.002252449 0.0012257601
-0.0005941993 -0.00086597074 -0.0015611316 -0.0019475586 0.00085209584 0.0010894057 -0.0005892123 -0.0004038369
-0.0014823258 0.001498179 -0.0007421693 -0.00124367 0.0014950524 0.0010593982 -0.0015877762 0.0022732276
-0.00017408845 -0.001599754 -4.0594573e-06 -0.004721764 0.00029553406 -0.0013294322 0.0026547674 3.8499198e-05
0.0011712118 -0.000484351 -0.0005555344 0.0011326254 0.0020399604 -0.001730656 -0.0011279453 2.290554e-06

actor.4.weight f4 [3, 64]
00000000: e943 803e b0ca 283c f5f6 a1bd 8b3e e9bd
00000010: 1fdb a6bd 9f6c 803e 94c6 dcbc e572 3bbe
00000020: 7519 eb3b dc97 37be d050 e5bd 3c32 39be
00000030: 9051 d9bd 2c78 fc3d 5181 683e 0c83 273e
00000040: 0e55 c93c cc8f 37be 1cce 4bbe cba3 89bd
00000050: 788e e33a 73e2 fe3d dc11 a23b 69a9 17bb
00000060: 30ca f83d b2f9 79bd fd9d 433d cf4e e23d
00000070: f468 a4bd a586 f73d dd65 febd 0dc3 2c3d
00000080: f851 7abc 6021 db3b 0b51 623e fb7c 793e
00000090: c5ae a73d 5e74 193d eacc 83bd a657 a43d
000000a0: 687e c83d 38b7 1f3e fc22 c8bd 2922 85bd
000000b0: 9d2a 893d 5f42 533d 0c99 8e3d 7eb9 93bd
000000c0: 75d6 62bd 5b85 a63b 964a bd3d 7ab2 58bd
000000d0: a242 6fbe 64ea 243c dd0c 953d 4e64 d33d
000000e0: 391e 7abe 0a52 11bd 8874 77be 59c5 623e
000000f0: e795 8dbd bdeb 05be 00d3 74bc 239c dc3c
00000100: 7c69 08bc 9430 40bd f2d8 bb3d ee73 9e3d
00000110: 6480 403e fe07 4bbe 4da7 223c accf d43c
00000120: 347e 20bd 5b1b ad3e 2e5f b0bc 2d0e 17be
00000130: ce3c 813d 5ed2 273e bff3 0a3e e2c1 eabc
00000140: 8b5a 4b3d 8a67 c33d e4ce 1d3e eed2 00be
00000150: 0a3a 3a3d a12c 06be 5157 83bd ac76 f93d
00000160: de15 233d 6a82 8c3c e0e2 93be 6f37 b63d
00000170: 8616 3c3d 011f 3fbd 33fc 3fbe f880 29bd
00000180: c5d9 c8bd 760e 02bd 2d0f 3c3e 6dcd 2e3e
00000190: 0a3f 49be 9e62 66bd e0f9 123e efe5 043d
000001a0: 566a 943e a3c3 ebbb c867 4f3c 7263 0cbd
000001b0: 44e3 4ebe edee 11be 8251 7f3e ee34 78bd
000001c0: a20e 9c3d 8b90 8c3d c78d cc3d dda2 35bd
000001d0: f409 19be f14d 173d 016d 71bb 5955 403d
000001e0: fdd0 f63c 43e0 c53d 5b7a 853c 1d56 b93c
000001f0: af39 58be bf79 a83d ffcc 443e b8a5 50bc
00000200: 9567 a1be 0cd0 dfbd 96b2 dabc 3021 11bc
00000210: 69a1 573e 57ac d63d f335 4a3d 72b7 393d
00000220: 99bd a6bd 2695 06bd 7f13 003d 1b98 36be
00000230: c1ae 4bbd 0c76 d5bd 9506 ef3c 6c52 a0bd
00000240: 98da fbbc 0145 14bb 3380 2a3d e7e0 dd3d
00000250: 639f 72be e6a2 003e b060 1abe 8ee7 363d
00000260: 2a3b 9c3d c8f3 a63e 07be a1bc 054a febd
00000270: 0ca3 7dbc e0e2 96bb 6abe 8c3d 722e 63bd
00000280: 2d3a bfbd a783 25bd 7139 143e 03e9 62be
00000290: 2232 1a3c 1717 603d c4f7 853c 85a0 63be
000002a0: 90ff c23c e0d5 ffba fb5e 5bbc c5b6 5dbe
000002b0: 3767 5d3e 9e30 a5be de62 9a3d f098 0a3d
000002c0: 38f0 5b3b b608 97bd 8012 313d 87ad d7bd
000002d0: d1a0 fdbd c73a cbbd 5a85 263e 2a3f 523e
000002e0: c710 2f3d af10 c4bd eb61 babd 6a51 833d
000002f0: 8597 033e 90c7 21be 1ef2 c2bb b000 edbc
0.2505181 0.010302231 -0.079084314 -0.11388882 -0.08147263 0.2508287 -0.026950158 -0.18305548
0.0071746656 -0.17929024 -0.111970544 -0.18085569 -0.1061126 0.123276085 0.2270558 0.16358584
0.02457669 -0.17925948 -0.19902843 -0.06720694 0.0017361185 0.124455355 0.0049459767 -0.0023141748
0.12147939 -0.061029144 0.04775809 0.11050188 -0.08027831 0.12086228 -0.12421773 0.042178202
-0.015278332 0.006687328 0.22101228 0.24364083 0.081876315 0.037464492 -0.06435569 0.0802453
0.09789735 0.15597236 -0.09772298 -0.06500656 0.06697581 0.05157697 0.06962785 -0.07213114
-0.055380303 0.005081815 0.09242742 -0.052904584 -0.23365262 0.010065649 0.07277844 0.10321866
-0.24425592 -0.03547863 -0.24165547 0.22145595 -0.06913357 -0.13078208 -0.014942884 0.02692992
-0.008325931 -0.046921328 0.091722384 0.077369556 0.18798977 -0.19827268 0.009927583 0.025977932
-0.039182857 0.33809933 -0.02152976 -0.14751501 0.06310426 0.16388842 0.13569544 -0.028656904
0.049646895 0.09541233 0.15410954 -0.12580463 0.045465507 -0.13102962 -0.06413139 0.12180838
0.039815776 0.01715203 -0.2888403 0.08897292 0.045919918 -0.046660427 -0.1874855 -0.04138276
-0.09807161 -0.031752072 0.18365164 0.17070551 -0.19652954 -0.056246392 0.14353132 0.032445844
0.28987378 -0.0071949526 0.012659021 -0.034274526 -0.20203882 -0.14251299 0.24933437 -0.060597353
0.076199785 0.06863507 0.099879794 -0.04434477 -0.14945203 0.036939565 -0.0036838653 0.046956394
0.03012895 0.09661915 0.016293695 0.02262407 -0.21115755 0.08226346 0.19218825 -0.012734823
-0.3152434 -0.10928354 -0.026696485 -0.00885801 0.21057667 0.1048209 0.049367856 0.045340963
-0.08141632 -0.032857083 0.031268593 -0.17831461 -0.049727205 -0.10422906 0.029177943 -0.07828221
-0.030743882 -0.0022624137 0.041626167 0.10833912 -0.23693614 0.12562141 -0.15075946 0.04465442
0.07628472 0.32607865 -0.019743932 -0.12416462 -0.015480768 -0.0046046823 0.06872256 -0.055464216
-0.09337268 -0.040408757 0.14475037 -0.221592 0.009411367 0.05470952 0.016353495 -0.22229202
0.023803502 -0.0019518696 -0.013389344 -0.21651752 0.21621405 -0.32263654 0.07538389 0.03383726
0.003355993 -0.07374708 0.043230534 -0.105311446 -0.12384189 -0.0992332 0.16261807 0.20531908
0.04274061 -0.09573495 -0.091007076 0.06412013 0.12850769 -0.15798783 -0.005949273 -0.028930992

actor.4.bias f4 [3]
00000000: 0500 7639 9e25 cfba f3db d43a
0.00023460395 -0.0015804057 0.0016239866

critic.0.weight f4 [64, 100]
00000000: be45 553d 50a6 3c3d 3712 a2bd 4246 273d
00000010: 50a0 03bd 85d2 f93d 9f42 e43d 4619 353e
00000020: b0f6 45be 0d07 f2bc 192a 193d 043d 0b3d
00000030: b9e2 903d 9cfb 9fbd 4e62 0c3d 0a30 c4bd
00000040: ffa7 103e e1ed b5bd 7daf 993d 9548 46bd
00000050: f70f 67be d016 0b3d 0e35 10be 0645 dcbd
00000060: 28a0 11be 4340 803b 3075 b9bd 949c 86bd
00000070: dd0e e8bb 5016 dfbd 7892 febc 891a d5bc
00000080: c09e a83d 0628 8c3d 5152 963d f319 efbc
00000090: 074b 65be 9f8b 2bbe 0aef a43d 57a6 2dbe
000000a0: 2012 cd3c 7495 9f3c 72d4 30bd 861b 2dbc
000000b0: 2238 8fbc ea88 f03d 9218 b5bc db82 09be
000000c0: 40b4 f6bd 0923 7bbe 58ff edbd c22a 01ba
000000d0: 1c4e 19be 73dd 233e 6550 8f3d 90e9 24bd
000000e0: 5878 55bc 72ea f73d 043b 663d 0f8b e2bc
000000f0: 7dff b0bd 60fe 183d 79b0 08bb 86d4 12be
00000100: 86d0 c5bc 07eb 51be a1ba 4b3d 190c cebd
00000110: 7b66 c9bd 275a 8fbd 322b 013e 5fff 083e
00000120: d845 17bd 8c18 c3bd 408f f83c c301 3fbd
00000130: bf9e 363c e995 833d 7bb1 5e3d 5088 003d
00000140: 4288 203e 6935 9d3c 5dd1 283e 05a5 263e
00000150: 546e 21be e471 a83d 3765 7fbd 1bc3 70be
00000160: 92aa 0abe d229 9fbd ea9c a2bd 017d f73d
00000170: ded7 5bbd c255 273d 1988 7dbd 3c1a b7bc
00000180: 4587 b23b 29f3 b23d ad5d 273d 7e1b 18bd
00000190: 8b92 ad3d abfc 88bb 10fe fa3c d9a9 57bd
000001a0: 2e4b 90bc 4142 283d bd3d ddbd 7293 d1bd
000001b0: 8284 0abe 0404 2a3d 8a5f 3b3d fc61 98bd
000001c0: 6444 43bd 8a81 0f3e 28f2 99bd 580d 973d
000001d0: 3d9b 2a3b 3cdd dd3b fa96 693d 1213 9fbd
000001e0: 02a2 e0bd 5fd5 2e3e 274b b8bd 1013 04be
000001f0: 5635 9fbd 7758 babd 04c6 9a3c 7779 04be
00000200: bd21 1e3e f2fa 0cbc 3bc2 933d 20ea a03d
00000210: 2a54 36be 72b5 d03c 5a76 0fbd fd64 753e
00000220: 9a01 87bd 5ba0 91bd d778 8bbd 6bcb 973d
00000230: 9ae9 34bd bcaf 823d 6cda 013e 629c 19be
00000240: 56b3 99bd f7af 353e ea05 4a3c b534 a9bd
00000250: c54b 6ebd 7393 a73d 5654 2cbd 78be f6bd
00000260: fee5 503e 65fd 64bd 805b 933d a25e b8bc
00000270: 16ec 7c3e 876f 0d3e 2cd3 663d 91cc 0cbe
00000280: 0661 9f3d a67d b9bd 92ca b03c d52e 683c
00000290: 008f 7e3d 91bb 14bd afa4 3e3e bbbd 47be
000002a0: 5e48 8b3d ceff 2bbe f436 afbd 456a a13d
000002b0: 5d6b d83c e619 3abd 3163 533d e5c9 28be
000002c0: 8324 823d c734 573c 00bc 13bd e21e 123d
000002d0: 7621 23be 5e5d 9abd bf8c b5ba 63d6 94bb
000002e0: b29b 6c3e 1613 f5bd 174f 2cbe cc0d 4a3e
000002f0: 7bd5 7abd 46ff 433d 4e9e 94bd 8b3f 9e3c
00000300: 44b8 3cbc 283c e23a 1994 413c c35e 9fbd
00000310: d2bb 4fbd ad2e 3a3d a471 7d3d ef05 bf3c
00000320: 551d 0fbe 0f6f 1a3e 715c 1cbe 8724 553d
00000330: 643b 353e 44b9 24bd 0e51 e83d ff30 3f3a
00000340: db02 02bd 2aaa 23bd 55aa 033e 3696 2c3d
00000350: 7224 28be d1f6 52bc 6b58 a1bd 865e a63c
00000360: 077a 6fbe 020c fcbb 6c8f be3d e7bf fd3c
00000370: dc72 213d e523 083d 0a57 1ebd a49a 67bd
00000380: 0e39 38be 843c 083e 1c6c 0abd 7d18 f2bc
00000390: 55a6 12be 56bd 77bd 55b5 25be 576f c7bc
000003a0: e988 a93d 1957 b73d 6193 a73e 7dff c03d
000003b0: c673 5fbd 153f 23bd 096c 543d 229b 6d3c
000003c0: 2678 a33c 694f 0f3e b095 60be b9e5 fb3c
000003d0: 9447 27bc 6ec3 1ebd 2874 ff3c 0874 5f3d
000003e0: b051 7f3c be70 b3bd cdf4 4b3e fe89 3ebe
000003f0: 9a5a 02be 835d 09bc 3b90 c2bb 5781 17bc
0.052068464 0.046057045 -0.079136305 0.040838487 -0.032135308 0.121983565 0.111455195 0.17685422
-0.19332385 -0.029544378 0.037393663 0.033993736 0.07074494 -0.078116626 0.03427344 -0.09579475
0.14126585 -0.088832624 0.07504175 -0.048409063 -0.22564684 0.033957303 -0.14082739 -0.10755353
-0.14221251 0.0039139106 -0.09055555 -0.06572834 -0.00708185 -0.10892928 -0.031075701 -0.02601363
0.08233404 0.06843571 0.07339919 -0.029187178 -0.22391902 -0.1675248 0.080534056 -0.16957985
0.025033057 0.019480444 -0.043171354 -0.010565644 -0.01748282 0.11744864 -0.022106443 -0.13428824
-0.12046099 -0.24525084 -0.116209686 -0.0004927331 -0.14971203 0.16002445 0.06997756 -0.040261805
-0.0130291805 0.12105264 0.056208625 -0.027654199 -0.086424805 0.037351966 -0.002085714 -0.14338884
-0.024147283 -0.20499812 0.04973853 -0.10060901 -0.09834 -0.06999617 0.12614134 0.13378666
-0.036931843 -0.09526166 0.030341744 -0.04663254 0.011146246 0.064250775 0.054368477 0.031379998
0.15676978 0.019190507 0.16486116 0.16273887 -0.15764743 0.08224848 -0.062352385 -0.23511927
-0.1354163 -0.077716485 -0.07940085 0.120843895 -0.053672664 0.04085327 -0.06189737 -0.022351377
0.0054482543 0.08737785 0.04086082 -0.037135594 0.084752165 -0.004180511 0.030638725 -0.052652214
-0.017613973 0.04107881 -0.10802791 -0.10233201 -0.1352711 0.041507736 0.04574541 -0.07440564
-0.047672644 0.14014259 -0.07516891 0.07375592 0.002603247 0.006770758 0.057028748 -0.07767309
-0.109684005 0.17073582 -0.08998709 -0.12897897 -0.07773845 -0.090989046 0.01889325 -0.1293696
0.15442558 -0.008604752 0.07214781 0.07857156 -0.17805544 0.025477145 -0.03502498 0.23964305
-0.06592102 -0.071106635 -0.06810158 0.07411846 -0.044168092 0.06381175 0.12680978 -0.15001062
-0.07504909 0.17742907 0.012330512 -0.08262006 -0.05817773 0.081824206 -0.042072617 -0.12048048
0.20400235 -0.05590572 0.071951866 -0.022506062 0.24699435 0.13812076 0.056353733 -0.13749911
0.077821776 -0.09057169 0.021580968 0.014171322 0.062148094 -0.03631169 0.1861751 -0.1950597
0.06800912 -0.167968 -0.08555403 0.078815974 0.026418382 -0.045434855 0.05160827 -0.16483267
0.0635462 0.013135142 -0.036067963 0.035673983 -0.15930733 -0.0753734 -0.001385115 -0.0045421585
0.23106268 -0.11966531 -0.16827045 0.19731826 -0.061238747 0.04785087 -0.07256757 0.019317409
-0.011518542 0.001726036 0.011815094 -0.07781746 -0.05071623 0.04545467 0.061875954 0.023318259
-0.13976033 0.15081428 -0.15269639 0.05203679 0.17698437 -0.040215746 0.11343585 0.0007293373
-0.031741004 -0.039957203 0.12857945 0.04213544 -0.16420153 -0.012876228 -0.078781925 0.020308744
-0.23386393 -0.007691861 0.09304699 0.030975295 0.03941618 0.033237357 -0.038657226 -0.05654396
-0.17990515 0.13304335 -0.033794507 -0.029552693 -0.14321263 -0.0604833 -0.16182454 -0.024345083
0.08278067 0.089521594 0.3272963 0.094237305 -0.05455377 -0.03985508 0.051860843 0.014502319
0.019954752 0.13995136 -0.21932101 0.030749189 -0.010209937 -0.038760595 0.031183317 0.054554015
0.015583441 -0.08761738 0.19917603 -0.18607327 -0.12729874 -0.008384111 -0.005937604 -0.009247146

critic.0.bias f4 [64]
00000000: d1eb 35bb 87c2 9a3b 1eb9 fdbb 64df 2cbb
00000010: 7553 ff3a e632 a9bb 667a 743b 8f89 06bc
00000020: 1e8d 383c 9e1a 153c d326 363c ffe6 bebb
00000030: 562f 4e3c 853d e639 b351 c83b 0733 9eba
00000040: 2a6c 05bc 67fe 67bb 0ada 123c 4cd5 02bb
00000050: b25e a9bb a3e4 0b3c 5ddf 263b 4f65 faba
00000060: 3356 1bbc 8d1f af3b 7c04 ffba b26b 493c
00000070: 4bb8 f6bb 4c9b cfba 7a10 3c3c dcee 70bb
00000080: 543c 973a 5d4d 8fbb b77b 043c 8672 d3bb
00000090: 7260 da3b 967b d63b 8067 fe3b e62b 2e3b
000000a0: 9fe1 053c e97a fdbb 9cd6 48bc 9b20 e7bb
000000b0: 7f58 193b 21f2 0abc d940 ab3b c897 f03b
000000c0: 4343 8a3c 3b11 a33b 65f1 08bc 5f76 18bc
000000d0: 2edf 37bb 7985 113c 62f3 fd3b 8de6 4fba
000000e0: 825c 013c 7f2f 283c f806 b2bb 15d0 5bbb
000000f0: e606 9e3c e5c2 0abc dd95 6c3b f647 503b
-0.0027758966 0.0047228965 -0.007743015 -0.0026378268 0.0019479828 -0.0051635383 0.00373044 -0.008211507
0.011264114 0.009100584 0.011117655 -0.0058258767 0.012584528 0.00043914854 0.006113255 -0.0012069651
-0.008143464 -0.0035399438 0.008963117 -0.001996356 -0.0051687593 0.008538398 0.0025462725 -0.0019103679
-0.009481001 0.0053443373 -0.0019456293 0.012293743 -0.0075292937 -0.0015839129 0.011478538 -0.0036763465
0.0011538365 -0.004373236 0.008086137 -0.0064528612 0.006664329 0.0065454943 0.007763803 0.0026576458
0.008171468 -0.0077355993 -0.012258198 -0.0070534474 0.0023398695 -0.00848058 0.0052262363 0.0073423125
0.016877776 0.0049764193 -0.008358334 -0.009305566 -0.002805661 0.00888192 0.0077499608 -0.0007930778
0.007895591 0.01026523 -0.0054329596 -0.0033540775 0.019290399 -0.008469318 0.0036100068 0.0031781173

critic.2.weight f4 [64, 64]
00000000: 19ec b2bc 176e 8f3c e93f 5fbe b67b c63d
00000010: 77c3 39bd 74aa cfbd fa30 b73d 7e81 31bc
00000020: 3b8c ea3d 7cf6 8b3c 6e3c 1e3e e577 0dbe
00000030: d911 9d3d c893 61bd 25d4 5a3c ecd0 5d3d
00000040: 39c1 acbd fdef 313d da8a 6abd 2e05 eebd
00000050: c323 59bd 6c63 8f3d 771b 0ebd 438a eebd
00000060: 3a6c 723d 75a0 2b3e 44cd af3c 4a53 a2bd
00000070: be71 573e 7b61 273e db94 c93d 4cf0 cfbc
00000080: 6d3f 123e 0dc3 df3c 69c4 143e 06f6 f9bd
00000090: 4759 d33c 4fda 3b3e 26c2 bfbc 5bf2 2bbd
000000a0: a72e 1c3e 9724 1b3d 0948 92bd f51b b3be
000000b0: 1c0a ee3c 568d a4be 705b 7ebd a25e 5bbd
000000c0: db42 f2bd 2b3e 3c3b 4059 a33d bbbc 31be
000000d0: e93c b3bd 64ed 9ebd f3ca d03c a32f 1dbd
000000e0: c01c 2cbe 59c9 a2be dcda 55be 38ec 17be
000000f0: d844 ab3d cefb d7bc da7b f3bc 80d2 6d3e
00000100: 451a 253d e44b 383e c0fe acbc 0fb0 6cbc
00000110: c09f babd 166a 7cbc 0378 8fbe 1df5 063c
00000120: ee03 db3d 030e 333d 76fc 9eba ebef 5c3d
00000130: 96c0 1cbd f6b3 cd3d 850b cb3d 8c96 8a3d
00000140: 73e0 5b3d 112b eabd addd 19be 92a7 e9bd
00000150: 000d bd3d 9953 8cbe da39 a8be a094 b53d
00000160: b089 193e 112d 25be 86b2 9f3e 32fc 9cbe
00000170: 1fa3 37be 96cd de3d 1c2a b93c 0722 153e
00000180: d0c9 17bd c6f7 f6bd 0689 0ebe 063b 2a3c
00000190: e6a2 273d 1076 d6bc 0b39 7d3d 1bb7 e43d
000001a0: 874c f63c df16 323d b503 2dbb 101d a03d
000001b0: 0257 adbd c1dc 6dbe fa22 803d d1ee d6bd
000001c0: 47e4 d43c 6f60 bf3d 927f 25be c8b4 223d
000001d0: cbc3 b03d 0ea6 16bd 5a5a f43d daa7 03be
000001e0: 79aa 4abd a15d 3f3d f2f0 543d 1c38 2dbd
000001f0: 310b fe3c 6677 8e3d a5c4 25bd 44b2 5a3e
00000200: dda1 a4bd 7038 623d 5452 debd d747 983d
00000210: 4f74 903e 966e 7e3d 3c20 a93c 4d6e 69bd
00000220: 170f ba3e 87ba 63be 2666 3b3e 1124 9cbc
00000230: 6843 193e 5443 8bbd 5166 1abd 4209 163c
00000240: 70c0 a43d c58b d73d afc8 c43d 6def 8cbd
00000250: 3837 9a3d 95cc 513e f37a 3fbc ab5b 163e
00000260: 922c 723e 404d 3fbe 5b2b c2bd a5ad debd
00000270: 49a4 81bd b75d 85bd 9391 e9bd daa7 cd3d
00000280: e7a5 fd3d dd46 093e 11df 83be fcc8 b73d
00000290: 1b4b 86bd 5650 97bc aa47 c1bd db98 a73d
000002a0: 493d 493c e383 c23d 19c2 0a3d 556f 93bd
000002b0: 9cd6 1b3e 8f67 613e d21c e4bd ba06 1bbe
000002c0: d12f 8d3d e949 203d fae2 efbd 1bb8 55be
000002d0: 5d08 08be 58ba 3e3c 9646 5bbd ab5c 31bd
000002e0: 8dc1 f03d 56e7 0e3e c8af dfbd 49de 773d
000002f0: cef1 55bb 33e1 b0bd e103 5d3b e4e8 c63d
00000300: 1c5a 20be da88 c0bd f47c 843d b88f d8bc
00000310: 5976 5cbd e9b3 083d 3ef5 663e c633 ef3c
00000320: ec48 8ebe e446 27be dfb7 bc3d 0cc2 413d
00000330: 1e03 ae3d 7f4e ee3d 5809 8cbc 190b 78bc
00000340: 6101 3ebd 2e6d a2bd 79bb 903c 28d7 9cbe
00000350: 2cb7 5e3c 4186 213e c160 16bd 89df a4bd
00000360: 416e 023e d0a7 07bd 6a03 1d3d c835 33be
00000370: cef0 c2bd 6dcf 6e3d c03e 62bd d415 e1bd
00000380: 5dde bb3d 8b5e d13d 13b5 2abe 558e a5be
00000390: 991f 143e 1f76 0fbc 5a6c ba3c fba0 01bd
000003a0: d60b cc3d a8e9 823d fd51 9a3d 6b92 3a3d
000003b0: d9a5 06be 4ec7 8f3d 3010 1d3d d057 cc3c
000003c0: 4010 c6bd 50ff 8f3e 168b 123d 4550 1e3e
000003d0: 6afd 4cbe da21 b43d a12a ce3d eac9 2abe
000003e0: 8783 963d 3b0e 4abc 6f80 b43d 1203 29be
000003f0: b7d0 33bb 9b2d 0a3e 73b1 433e 36bf 4bbe
-0.021841096 0.01750855 -0.21801724 0.09691565 -0.045352425 -0.10139933 0.089448884 -0.010834096
0.11452528 0.017085306 0.1545274 -0.13815267 0.0766942 -0.055072576 0.013356243 0.05415432
-0.08435292 0.04344176 -0.057261325 -0.11622082 -0.05301262 0.07001385 -0.03469416 -0.11647465
0.059185244 0.16760428 0.021460183 -0.079260424 0.21039483 0.1634578 0.09842845 -0.025383137
0.14282008 0.027314687 0.1452805 -0.12205128 0.025799407 0.18344997 -0.023408007 -0.041979175
0.15252171 0.03787669 -0.07142646 -0.34982267 0.029057555 -0.3213908 -0.06209892 -0.053557046
-0.11829158 0.0028723578 0.079760075 -0.17357151 -0.08751852 -0.077601224 0.025487399 -0.038375508
-0.16807842 -0.3179424 -0.2088427 -0.14836204 0.0836274 -0.026365187 -0.029722143 0.2322483
0.040308256 0.179977 -0.021117568 -0.0144462725 -0.09112501 -0.015406152 -0.2802125 0.0082371505
0.10694109 0.043714534 -0.0012129683 0.05393974 -0.0382696 0.100440904 0.099143066 0.06766996
0.05368085 -0.114339955 -0.15025969 -0.114089146 0.09230995 -0.2740753 -0.32856637 0.088662386
0.1499393 -0.16130473 0.3119089 -0.3066116 -0.1793332 0.10879056 0.022603087 0.14563762
-0.037057698 -0.12058978 -0.13919458 0.010390049 0.040926836 -0.026179343 0.06182198 0.11167737
0.030065788 0.043478843 -0.0026399915 0.07818043 -0.08463861 -0.23228742 0.06256671 -0.10494769
0.025987757 0.09344565 -0.16161945 0.039723188 0.086310945 -0.036779456 0.11931296 -0.12856999
-0.04947898 0.04672015 0.051987596 -0.04228984 0.031011196 0.06956367 -0.040470738 0.21357065
-0.080386855 0.055229604 -0.108555466 0.07435577 0.28213736 0.06211718 0.020645253 -0.056989957
0.36339638 -0.22239123 0.18300685 -0.019060167 0.1496712 -0.06799951 -0.037695233 0.009157481
0.08044517 0.10524706 0.0960859 -0.06881604 0.075300634 0.20488198 -0.011687028 0.14683406
0.23649815 -0.18681812 -0.09480926 -0.10872964 -0.06330163 -0.06512015 -0.11404719 0.10041781
0.12385159 0.13405938 -0.25756124 0.089738816 -0.06557294 -0.018470924 -0.09437497 0.08183452
0.012282678 0.09497812 0.033876512 -0.07198969 0.15218586 0.2201216 -0.111383095 -0.15139285
0.06893886 0.039132986 -0.11713214 -0.20871012 -0.1328444 0.0116411075 -0.053534113 -0.043301266
0.11755667 0.13955435 -0.109221995 0.060514722 -0.0032645348 -0.08636703 0.0033724236 0.09712389
-0.15659374 -0.09401102 0.064691454 -0.026435718 -0.053823803 0.0333747 0.2255449 0.029199492
-0.2779001 -0.16335636 0.09214758 0.0473042 0.08496688 0.11636066 -0.0170943 -0.015139365
-0.046388034 -0.079309806 0.017667519 -0.306329 0.013593476 0.1577387 -0.036713365 -0.080504484
0.12737371 -0.033119023 0.038333334 -0.17500985 -0.09518586 0.058303285 -0.055235624 -0.109904915
0.09173272 0.10223111 -0.16670637 -0.32335153 0.14465179 -0.00875619 0.022756744 -0.031647664
0.09963195 0.06392223 0.07535169 0.04554979 -0.13149203 0.07020436 0.038345516 0.024944216
-0.09671068 0.28124475 0.035777174 0.15460308 -0.20018545 0.08795519 0.100667246 -0.16678587
0.073493056 -0.012332494 0.08813559 -0.16505077 -0.0027437636 0.1349396 0.1911066 -0.1989716

critic.2.bias f4 [64]
00000000: 7fc4 c93b c836 5dbb d391 3f3b 5e44 843b
00000010: 258d b4bb 52ad e63b 9c5d a0bb cb4a 1abb
00000020: 3a3c 593b f360 643b ad46 8bbb 553c 63bb
00000030: 19c0 4dbb a54b 4b3b ad12 c6bb d5ee 84bb
00000040: 6b8b 83bb 729c e7bb 26cc 34bb b54f 963b
00000050: 4d5e 31bb 2fc1 78bb 0122 4ebb 3b27 823b
00000060: ef10 65bb 067b 593b 6fec 873b 0432 8f3b
00000070: 8230 723b 658d 8d3b 4b3b 9e3b 2a92 50bb
00000080: ec5a 7f3b fae2 8f3b 269c a3bb 8650 b5bb
00000090: 6e6c 5f3b 665b a73b d1a4 8c3b 3fa8 b83b
000000a0: 387d 31bb df8d 6c3b 7e7e 8bbb b462 53bb
000000b0: d292 943b 029f 87bb 6237 0abb 4f47 5a3b
000000c0: a25d 373b 4c5d c53b bcc1 653b 90c1 313b
000000d0: 8d3e 31bb 6332 b73b 4683 58bb 61ad 0b3c
000000e0: fd95 38bb e4ae b2bb 7739 ae3b 6722 1d3b
000000f0: 7dcd 65bb 4143 9c3b 5e11 443b 6672 2c3b
0.0061574574 -0.0033754576 0.0029231205 0.0040364703 -0.00550999 0.0070397044 -0.0048939716 -0.0023543115
0.003314747 0.0034847825 -0.0042503686 -0.0034673412 -0.0031395017 0.003102043 -0.006044707 -0.0040567913
-0.0040144227 -0.0070682103 -0.0027587502 0.0045871385 -0.0027064264 -0.0037956943 -0.0031453373 0.003971962
-0.003495272 0.00331849 0.004148058 0.004369976 0.0036955182 0.004319834 0.0048288456 -0.0031825402
0.0038964106 0.0043910714 -0.0049929796 -0.005533281 0.0034091729 0.005107331 0.0042921086 0.005635291
-0.0027082693 0.0036095304 -0.0042570224 -0.0032254877 0.004534104 -0.0041388283 -0.002109014 0.0033306663
0.0027979393 0.0060230847 0.0035058102 0.002712343 -0.002704534 0.0055907234 -0.003303723 0.0085252235
-0.0028165572 -0.0054529775 0.005316909 0.0023976804 -0.0035065108 0.0047687595 0.0029917578 0.0026313304

critic.4.weight f4 [1, 64]
00000000: bbf4 ffbd c5e4 323b 215c 23be 11bd 16bd
00000010: 65eb 443e 94db e1be bea2 5c3c fcfd 053d
00000020: 5927 1cbc be4e 7bbe 90b0 503d d1c5 b83c
00000030: 3ebd 3e3d 285b cbbd edc4 5f3e c4df 383d
00000040: 85fc 243e 2dc1 3c3e ec0b 963d f3cd 05bd
00000050: 36db e23c 4133 c039 ce0a e53b 8378 cebb
00000060: b851 493d 4bcc 82bd 84ef 60bb e7c1 b2bd
00000070: 2dff 28be 8f9b 39bd a26f 62bd f2f8 8f3d
00000080: ed2d 92b9 493f 0ebe a2eb e03d 14c2 ca3d
00000090: f3f9 e0bd 2aef cabd bdd8 a0bd 5b6e 8cbd
000000a0: 8fa6 553d 085c 8abd 4b9d 553c 7082 4c3e
000000b0: 33fa 23be f44f f539 055b a33d 873b 21be
000000c0: 0c34 c3bd 939a d0bd c54c 0cbd 55a5 53be
000000d0: 5b56 d53d f108 19be 222c d73b d471 93bd
000000e0: 63f7 9d3d f96b 9d3e 7a4f 1abd 9517 37bc
000000f0: ad22 c73d cb54 52be 00e7 59bd 465c 21be
-0.124978505 0.0027297002 -0.15953113 -0.0368014 0.19230421 -0.44112837 0.013466535 0.03271292
-0.009530866 -0.24541757 0.050949633 0.022555264 0.046567194 -0.09929496 0.21852465 0.045135275
0.16111954 0.18433066 0.07326493 -0.03266711 0.027692419 0.0003665928 0.0069898134 -0.006300987
0.0491502 -0.06386622 -0.003432245 -0.0872839 -0.16503592 -0.045314368 -0.055282243 0.070299044
-0.00027881507 -0.13891329 0.109824434 0.09900299 -0.10985174 -0.09908898 -0.078538395 -0.06856986
0.052160796 -0.06755835 0.01303799 0.19971633 -0.16013412 0.0004678961 0.07976345 -0.15745364
-0.095314115 -0.10185733 -0.0342529 -0.20668538 0.104168616 -0.14944817 0.0065665403 -0.07199445
0.07713201 0.3074644 -0.03767345 -0.011175056 0.09723411 -0.20540158 -0.053198814 -0.15757856

exp_avg f4 [64, 100]
00000000: 278f 3cb6 5545 3fb6 748e 6ab6 021a 6134
00000010: 3170 92b7 5ae9 b734 d8a4 ceb4 d52f 18b7
00000020: ad67 c2b7 47a3 a234 6cbe b7b5 4252 d5b6
00000030: de89 0ab8 7eb1 15b4 7ecb cb33 cbd2 b6b6
00000040: e8bd deb7 1c13 8535 c1d5 2235 22c1 abb6
00000050: 6a05 c0b7 340b 3735 ed9c a635 7411 aeb6
00000060: 39ea a9b7 850b ea34 485b 5235 04b6 b6b6
00000070: d367 a3b7 ed77 d1b1 b3ed 0d34 3d83 aab6
00000080: ca77 98b7 6d20 dbb3 3d59 8835 418f beb6
00000090: 3ba0 2237 e8af 38b4 3aa7 6e35 9b40 1bb7
000000a0: ec3f 3d37 314e a6b4 55a6 bc35 6402 1fb7
000000b0: 4f40 0438 e98c 27b1 2a1b bdb5 ce93 03b7
000000c0: 6659 af37 0d12 1134 bafc cc33 827b 7bb6
000000d0: ab6a 3e37 ffab 57b3 f5cd ae34 4bd5 66b6
000000e0: 98a4 3db7 5f94 2b35 a4b8 6eb6 0295 9536
000000f0: 8694 c337 1c61 2435 b02e cfb6 0ec4 8eb4
00000100: 71d9 24b8 7076 a735 cbaf 6237 d53a c9b4
00000110: 2b5e b037 a5f9 d533 15ad 2eb7 efbf c3b4
00000120: f1aa 46b8 d5ea d134 8433 4a34 fe35 9934
00000130: 6761 6bb8 3e6b 3236 01e5 5ab5 31b3 2635
00000140: 3859 3eb8 a9aa 3cb7 20e5 8134 4148 2735
00000150: 0880 dcb8 8e23 f136 3839 aa33 bbaa 61b5
00000160: 0e63 d6b8 545c 97b5 00bd 0b34 d263 0536
00000170: 204f d8b8 e1c2 0bb5 57fc 1335 6a9a d835
00000180: dd1e d3b8 021d d233 5c93 abb4 8d88 d936
00000190: 2b7c 8837 42d6 3eb6 f261 2db4 7753 aeaf
000001a0: 857b 9838 6571 0bb6 cbbb a734 b17a f4b5
000001b0: 9796 8b38 0fd9 0fb6 6d0f 14b2 aefa 93b6
000001c0: 0dd9 4938 e4b4 f7b5 7a47 cdb4 305a 4fb6
000001d0: 0138 f737 175f 6935 c05b 55b4 43dc 5eb6
000001e0: c4a9 b937 0914 0436 81d1 7ab4 e05d 5eb6
000001f0: 1433 c737 935f e635 67a7 df33 e1d6 76b6
00000200: 5c19 8037 bb08 fc35 aae9 a134 ff04 0cb6
00000210: 4bd0 c037 dd4a 7d35 7efc 1b35 a9f4 07b6
00000220: 707a 3f38 0e8b bab3 33a9 1634 c9d6 bb33
00000230: 4b14 8738 939b 8333 546f 91b2 77c7 0bb6
00000240: e282 6f38 028e 8034 e2c0 6b35 5798 66b4
00000250: af58 9738 da6c d2b2 cda5 e4b5 d13e 06b4
00000260: ddf0 9e38 3d1a b134 e771 5935 a6cb 3134
00000270: 6d5a bf38 a688 b1b4 72c6 fdb5 37d5 a734
00000280: 91a8 8c38 dfe4 f134 ddd6 2037 ae9a 1cb6
00000290: 56ce b938 75d4 2835 cdc6 f736 2cdc 34b4
000002a0: bea4 0139 168c 15b5 81fe 79b3 6f6e 88b4
000002b0: 9bcf ed38 27ab 5736 bde5 f1b3 da14 7734
000002c0: a298 0339 5e02 c0b5 c93b 6d34 5fa1 3fb4
000002d0: 2c4d 0d39 8f90 16b6 0393 6931 0a1f 4735
000002e0: 7bd2 c938 b3c4 5136 d35b ac32 29a1 9135
000002f0: 3310 9538 06ac d4b5 990f ceb2 d376 c536
00000300: b346 3a38 fff6 5a32 176f 3db3 47aa 0237
00000310: ab0f 4038 9716 d632 f311 8cb3 d80e cb36
00000320: d610 9b39 5c6a 77b9 7873 74b8 99b7 7ab8
00000330: 6aff 183a cd37 d737 c407 0fb9 d3e2 2e38
00000340: 8b53 803a 3dcb 5035 a12a c7b9 0a41 8b38
00000350: 34ef 5c3a b1d6 0fb8 2970 65b9 aca6 b1b7
00000360: e136 4938 895a 7bb7 4fd5 8937 67ba b237
00000370: 3b9f f9b8 c7a1 4237 7c2b 81b7 6e49 beb7
00000380: 6850 bbba 036b 3039 541a 3238 d375 e4b7
00000390: 8761 91ba 9b98 92b8 990c 5938 0ece c736
000003a0: a4b5 2fba 850c 59b9 4cfd 6e38 b207 99b6
000003b0: c9ed 1637 c6b8 63b9 2e5a 9b37 42c4 ad35
000003c0: db2d 02ba 6f50 0f35 32b1 5e38 bcd8 d6b7
000003d0: d725 7cba a4ad bf37 1f8a 6038 9912 3638
000003e0: 5411 afb9 5e71 c6b4 2737 06b6 c828 4c37
000003f0: 9fbd 02ba 6cd3 f237 3928 9b37 b872 2937
-2.8097509e-06 -2.8501574e-06 -3.4951636e-06 2.096422e-07 -1.74568e-05 3.4256192e-07 -3.849043e-07 -9.071043e-06
-2.317488e-05 3.029365e-07 -1.3689983e-06 -6.3574707e-06 -3.3030163e-05 -1.3941278e-07 9.489939e-08 -5.448562e-06
-2.6552894e-05 9.914834e-07 6.0660756e-07 -5.1186807e-06 -2.2890705e-05 6.8189115e-07 1.2413635e-06 -5.187636e-06
-2.0255438e-05 4.3594278e-07 7.836393e-07 -5.445212e-06 -1.9479461e-05 -6.0963345e-09 1.3218123e-07 -5.081673e-06
-1.8175593e-05 -1.02038804e-07 1.0158761e-06 -5.679118e-06 9.693259e-06 -1.720033e-07 8.8905256e-07 -9.253762e-06
1.1280161e-05 -3.09768e-07 1.40555e-06 -9.477695e-06 3.1531144e-05 -2.4381797e-09 -1.4089503e-06 -7.842622e-06
2.0903255e-05 1.3510744e-07 9.545461e-08 -3.7473806e-06 1.1349718e-05 -5.0215018e-08 3.255988e-07 -3.4396824e-06
-1.13036e-05 6.391837e-07 -3.5572239e-06 4.457893e-06 2.3314973e-05 6.1236074e-07 -6.174516e-06 -2.659221e-07
-3.9303155e-05 1.247694e-06 1.351158e-05 -3.7481973e-07 2.1024685e-05 9.9639955e-08 -1.0411507e-05 -3.646123e-07
-4.736608e-05 3.9100146e-07 1.8831457e-07 2.8537755e-07 -5.611908e-05 2.658649e-06 -8.1544573e-07 6.2100577e-07
-4.538262e-05 -1.1245408e-05 2.4194833e-07 6.231749e-07 -0.00010514265 7.186499e-06 7.92665e-08 -8.406748e-07
-0.000102227656 -1.1277248e-06 1.3014142e-07 1.9876647e-06 -0.00010314421 -5.206512e-07 5.512897e-07 1.6138194e-06
-0.00010067013 9.7841635e-08 -3.195845e-07 6.4830006e-06 1.6270284e-05 -2.843692e-06 -1.6147513e-07 -3.170972e-10
7.270932e-05 -2.0778618e-06 3.124281e-07 -1.8215125e-06 6.656086e-05 -2.1435005e-06 -8.618241e-09 -4.4101243e-06
4.812428e-05 -1.845558e-06 -3.8236232e-07 -3.08979e-06 2.9470773e-05 8.693764e-07 -1.987055e-07 -3.3208787e-06
2.2132772e-05 1.9681195e-06 -2.3359281e-07 -3.313522e-06 2.3746434e-05 1.7164151e-06 1.0414697e-07 -3.6781933e-06
1.5270598e-05 1.8778004e-06 3.01586e-07 -2.0864534e-06 2.2985178e-05 9.4358785e-07 5.8109424e-07 -2.0258979e-06
4.5651977e-05 -8.686594e-08 1.4031393e-07 8.746935e-08 6.4410815e-05 6.128462e-08 -1.6930848e-08 -2.0828718e-06
5.7103935e-05 2.3945182e-07 8.7825003e-07 -2.147584e-07 7.21676e-05 -2.4496718e-08 -1.7035578e-06 -1.2502575e-07
7.5788914e-05 3.298791e-07 8.100455e-07 1.6558496e-07 9.124433e-05 -3.3068244e-07 -1.8907724e-06 3.1261308e-07
6.707118e-05 4.5056274e-07 9.58677e-06 -2.3335847e-06 8.8599205e-05 6.289404e-07 7.384317e-06 -1.6843904e-07
0.0001236377 -5.571068e-07 -5.82063e-08 -2.5412325e-07 0.0001133971 3.213712e-06 -1.1264226e-07 2.3011253e-07
0.00012549994 -1.4305804e-06 2.2094095e-07 -1.7846968e-07 0.00013475557 -2.2435886e-06 3.398953e-09 7.4178445e-07
9.623632e-05 3.125792e-06 2.0065192e-08 1.0850246e-06 7.107891e-05 -1.5845296e-06 -2.398865e-08 5.8848905e-06
4.44117e-05 1.27454305e-08 -4.4106027e-08 7.78825e-06 4.579096e-05 2.4923152e-08 -6.522523e-08 6.0515995e-06
0.00029576448 -0.00023595378 -5.8281672e-05 -5.9775633e-05 0.00058363995 2.5655982e-05 -0.00013640436 4.169608e-05
0.0009790523 7.778179e-07 -0.00037988 6.640151e-05 0.0008427978 -3.4293804e-05 -0.00021880925 -2.1177657e-05
4.7973244e-05 -1.4981845e-05 1.6431002e-05 2.1306054e-05 -0.00011902904 1.1600968e-05 -1.5398247e-05 -2.2683958e-05
-0.0014290931 0.00016824533 4.2463027e-05 -2.7234584e-05 -0.0011091687 -6.9902475e-05 5.1748564e-05 5.95465e-06
-0.0006702787 -0.00020699397 5.6979523e-05 -4.560651e-06 8.99606e-06 -0.0002171724 1.8519433e-05 1.2946623e-06
-0.00049659394 5.33887e-07 5.309395e-05 -2.5611713e-05 -0.00096186757 2.2849832e-05 5.3534397e-05 4.34095e-05
-0.00033391512 -3.696286e-07 -1.999966e-06 1.2168843e-05 -0.0004987362 2.8947099e-05 1.849617e-05 1.0099895e-05
