ppo_cartpole.pth (torch, 65922 bytes, 11 tensors)

actor.0.weight f4 [64, 52]
0	0x3d63622c	0.055513546
1	0xbda825a3	-0.08210304
2	0xbc607d38	-0.0137017295
3	0xbdfe4bb1	-0.12416781
4	0xbde171ca	-0.11008032
5	0x3dfafb86	0.122550055
6	0xbe073930	-0.13205409
7	0x3c08c9d0	0.008348897
8	0xbddb897c	-0.107195824
9	0xbca3bcc0	-0.019987464
10	0x3da9af40	0.082853794
11	0x3c9cc380	0.01913619
12	0x3cbb92b8	0.02289711
13	0xbbabdb40	-0.0052446425
14	0xbd59819a	-0.053102113
15	0x3db4b222	0.08823039
16	0xbde887a4	-0.113539964
17	0xbe09f8a9	-0.13473763
18	0x3d4f800c	0.050659224
19	0x3d9acca6	0.07558565
20	0x3bbc8420	0.005753055
21	0x3ad1ed80	0.0016016215
22	0x3e0ba191	0.13635851
23	0xbd0d58c6	-0.03450849
24	0x3dca824c	0.098881334
25	0x3dee3a8e	0.11632262
26	0xbcaf8d0c	-0.021429561
27	0x3c7fb770	0.0156077
28	0x3d872102	0.065980926
29	0x3d91ae36	0.07113306
30	0xbd302e1e	-0.04301273
31	0xbe01dc5d	-0.12681718
32	0x3c7cda40	0.015432894
33	0x3cfc8f28	0.030829981
34	0x3dce1e5c	0.10064384
35	0xbcbdbe4c	-0.02316203
36	0xbdf6c304	-0.12048915
37	0xbdd6b889	-0.10484416
38	0x3cd723f0	0.026262254
39	0xbb816c80	-0.003949702
40	0x3d32359c	0.043508157
41	0x3cd17710	0.025569469
42	0xbcd6d674	-0.026225306
43	0x3dfe827e	0.12427233
44	0xbd8634d4	-0.06553045
45	0xbdf5159c	-0.11967012
46	0xbd8d781b	-0.06907674
47	0xbd2dd790	-0.042441905
48	0xbdc1d460	-0.094643354
49	0x3da80964	0.08204916
50	0xbe06729f	-0.13129662
51	0xbd85a3e3	-0.065253995
52	0x3cef1670	0.029185504
53	0x3d64a4cc	0.055821225
54	0xbd6b5404	-0.05745317
55	0x3d87bea6	0.0662816
56	0x3d4c4084	0.049866214
57	0xbd9a835e	-0.075445876
58	0xbd68883e	-0.056770556
59	0x3ddcde42	0.1078458
60	0x3d24a020	0.04019177
61	0xbdc42e48	-0.0957914
62	0xbdca1c35	-0.09868661
63	0x3db63bda	0.088981345
64	0xbd1ad36e	-0.03779929
65	0x3d544050	0.051819146
66	0xbb93f2e0	-0.004515037
67	0xbc10ebd0	-0.008845285
68	0xbcd4503c	-0.025917165
69	0xbdc9763d	-0.09837005
70	0x3ccee2d8	0.025254652
71	0x3d48f600	0.04906273
72	0xbbf7b200	-0.007559061
73	0x3a3ed200	0.0007279217
74	0x3e08286d	0.13296671
75	0x3e07e8dd	0.13272424
76	0xbdd069c2	-0.10176422
77	0x3d4fe484	0.05075504
78	0x3b9038a0	0.0044012815
79	0xbd9d4f12	-0.07681097
80	0x3d110880	0.035408497
81	0x3d865c36	0.065605566
82	0x3df99f7e	0.12188624
83	0x3df2d806	0.118576095
84	0x3d90d5e8	0.070720494
85	0xbc7df1a0	-0.015499502
86	0x3dd098a2	0.101853624
87	0x3cc57878	0.024105296
88	0xbdf3631b	-0.11884137
89	0x3e0d0a09	0.1377336
90	0xbd27ef5c	-0.040999755
91	0x3cdc7db0	0.026915401
92	0xbca4c75c	-0.020114593
93	0xbd64acee	-0.05582898
94	0x3ce1c2d0	0.027558714
95	0xbd0617b0	-0.032737434
96	0xbdde4ae9	-0.10854132
97	0x3d9269a6	0.07149057
98	0xbddafade	-0.1069238
99	0xbd822b42	-0.06355907
100	0xbb0ec440	-0.0021784455
101	0x3d52056c	0.051274702
102	0xbcd71368	-0.02625437
103	0x3d9fa2d2	0.077947274
104	0xbc468cf0	-0.012118563
105	0xbd0a7118	-0.03379926
106	0x3e06de0b	0.1317064
107	0x3c8bbad0	0.017056853
108	0x3d4ad738	0.049521655
109	0x3c89fa00	0.016842842
110	0x3d287b24	0.04113306
111	0xbadd2180	-0.0016870946
112	0xbe0ab20a	-0.13544479
113	0xbc4157f0	-0.011800751
114	0xbd6e9a88	-0.05825284
115	0x3e085137	0.13312231
116	0xbc0c3c80	-0.008559346
117	0x3da4449e	0.080209
118	0x3d9fd29c	0.078038424
119	0x3c976be8	0.01848407
120	0xbbffeb60	-0.0078100413
121	0xbd153010	-0.03642279
122	0x3cdb4a68	0.026768878
123	0xbd948a6a	-0.07252963
124	0x3df459ae	0.119311675
125	0x3d94a678	0.07258314
126	0xbd7c4226	-0.06158652
127	0x3dbdf9f4	0.092761904
128	0xbdeb0220	-0.11475015
129	0xbdc4251e	-0.09577392
130	0xbc9d7240	-0.019219518
131	0xbde4f47e	-0.11179446
132	0x3d9622dc	0.07330868
133	0x3cc6e4b8	0.024278983
134	0xbdef2e66	-0.11678772
135	0xbd929037	-0.07156413
136	0xbe0cf6c5	-0.1376601
137	0xbb6c9600	-0.003610015
138	0x3cf6c1a0	0.030121624
139	0xbdb2365a	-0.08701773
140	0x3cd704a8	0.026247337
141	0xbd3c5954	-0.045983627
142	0x3d27f880	0.041008472
143	0xbe04b23f	-0.1295862
144	0x3d2ea9a4	0.04264225
145	0x3d9267de	0.07148717
146	0xbd065124	-0.032792225
147	0x3ddb5504	0.10709575
148	0x3d8b4c80	0.068017006
149	0xbd168ade	-0.036753528
150	0x3d3f4924	0.04670061
151	0xbd5d759a	-0.05406723
152	0xbdc645a6	-0.09681253
153	0x3d9d378e	0.07676612
154	0x3de6b39a	0.11264725
155	0x3de956c2	0.11393501
156	0x3ca7d628	0.02048786
157	0xba905280	-0.0011010915
158	0x3d56781c	0.05236064
159	0xbcc08a98	-0.023503587
160	0xbd89781f	-0.067123644
161	0x3dcf1f9c	0.10113451
162	0x3dd369b6	0.10322897
163	0x3cb971e0	0.022637308
164	0xbd5aa222	-0.05337728
165	0xbdcbc7a6	-0.09950189
166	0x3cbed3d0	0.02329436
167	0xbce16140	-0.027512193
168	0x3cdcffc8	0.026977435
169	0x3d3eca78	0.046579808
170	0x3981dc00	0.0002476871
171	0xbd19eab2	-0.03757734
172	0xbdadbfd0	-0.08483851
173	0x3e01fad3	0.12693338
174	0xbd8152dd	-0.06314633
175	0x3ceb81e0	0.028748453
176	0xbe07e35f	-0.13270329
177	0x3d8c1ee4	0.068418294
178	0xbcb0ab24	-0.021565981
179	0x3d458d40	0.04823041
180	0xbe04fb4a	-0.12986484
181	0xbcfe6dcc	-0.031058215
182	0xbe090469	-0.13380589
183	0x3d575950	0.05257541
184	0x3aeea700	0.0018207729
185	0x3d0d0944	0.034432665
186	0x3c8c77c8	0.01714696
187	0x3dcadf76	0.09905903
188	0x3dccfb90	0.10008919
189	0x3d5dba24	0.054132596
190	0xbdca75bb	-0.098857366
191	0x3e070f47	0.13189422
192	0xbe04aa13	-0.12955503
193	0x3df12a42	0.11775638
194	0x3df02142	0.117250934
195	0xbd20c39e	-0.039249055
196	0x3d69b288	0.057055026
197	0xbda18a24	-0.07887676
198	0xbdd91cc7	-0.10601192
199	0x3e07158f	0.13191818
200	0xbe075874	-0.13217336
201	0xbd2fc906	-0.04291632
202	0x3dcd4900	0.10023689
203	0xbdeee4b2	-0.11664714
204	0x3d70a964	0.058755293
205	0xbd82ca73	-0.063862704
206	0xbda2c2cc	-0.07947311
207	0xbdb7514d	-0.08951054
208	0xbe06255c	-0.13100189
209	0xbe038d4b	-0.12846868
210	0xbe02fd3f	-0.12791918
211	0x3dbf12ee	0.093297824
212	0xbd4475aa	-0.047963776
213	0xbc883e4c	-0.016631268
214	0xbd1236a6	-0.035696648
215	0xbdfc4912	-0.123186246
216	0x3e07ef67	0.13274918
217	0xbd43f30c	-0.04783921
218	0xbc35c7c0	-0.011094987
219	0x3c10b480	0.008832097
220	0x38d2c000	0.00010049343
221	0x3c386c90	0.011256352
222	0x3d9ed924	0.0775626
223	0xbdb4c694	-0.08826938
224	0xbd7b3ba6	-0.061336182
225	0x3cf48750	0.029849678
226	0xbd5ac03e	-0.053405993
227	0x3df90716	0.12159555
228	0x3e0b80e3	0.13623385
229	0x3d979780	0.07401943
230	0x3cc2f2a8	0.023797348
231	0x3d6acf44	0.05732657
232	0x3d9d8622	0.076915994
233	0x3d4a60a4	0.04940857
234	0x3e04922d	0.12946387
235	0x3ddd7aa4	0.108144075
236	0xbd120146	-0.035645746
237	0xbd4a37c6	-0.049369596
238	0x3c2af9e0	0.010435551
239	0x3bd0b4a0	0.0063691884
240	0xbde9a5ca	-0.11408575
241	0x3d900fa4	0.07034233
242	0xbb0155c0	-0.001973495
243	0xbd1035ac	-0.035207435
244	0x3da5a630	0.080883384
245	0xbcea429c	-0.028596215
246	0x3d476830	0.048683345
247	0xbdcbd973	-0.099535845
248	0x3db36f48	0.087614596
249	0x3d444488	0.04791692
250	0xbd3835c4	-0.04497315
251	0xbc4a8cd0	-0.012362674
252	0x3d9ea5c8	0.07746464
253	0xbd79ec48	-0.06101635
254	0xbcf304ac	-0.029665314
255	0xbddd1dfc	-0.10796735

actor.0.bias f4 [64]
0	0x3df0d8ea	0.11760123
1	0xbdc23086	-0.09481911
2	0x3c6a7c70	0.014311895
3	0xbd9907f6	-0.074722216
4	0xbd984243	-0.074345134
5	0x3df0593a	0.117357686
6	0x3caf3de8	0.021391824
7	0xbcca36ac	-0.024684273
8	0x3d28a04c	0.041168496
9	0xbdfffe61	-0.12499691
10	0x3ddcddac	0.10784468
11	0x3d21bf08	0.039488822
12	0xbda8c8b6	-0.082414076
13	0x3ddc0a22	0.1074412
14	0xbe043ea0	-0.12914515
15	0xba790800	-0.0009499788
16	0x3d2003b4	0.03906603
17	0x3cb4f640	0.022090077
18	0x3da8acb2	0.08236064
19	0x3d53cf78	0.05171153
20	0xbdd69e39	-0.10479397
21	0xbd1b62c4	-0.037935987
22	0xbcc5d920	-0.024151385
23	0x3d4909fc	0.049081787
24	0x3abf4e80	0.0014595538
25	0x3d937846	0.07200675
26	0x3dad0fd0	0.084502816
27	0x3d19e364	0.037570372
28	0x3d40a3cc	0.04703121
29	0xbe0a589b	-0.13510363
30	0x3d7c8fe0	0.061660647
31	0x3dd65fb2	0.10467471
32	0x3db944e6	0.090463445
33	0xbd0b0576	-0.033940755
34	0xbd3508b2	-0.044197746
35	0x3dd0db1a	0.1019804
36	0xbda1cad9	-0.07900018
37	0x3c9d0798	0.01916866
38	0xbbd98e80	-0.006639302
39	0xbdca3891	-0.098740704
40	0xbdf4f56a	-0.119608715
41	0x3e0cf10f	0.13763832
42	0x3d0a68a4	0.0337912
43	0x3d9871a4	0.0744355
44	0xbdfc8819	-0.12330646
45	0x3db808f4	0.08986083
46	0x3d31990c	0.043358847
47	0x3d3191f4	0.043352082
48	0x3d73cb60	0.059520125
49	0xbb27f7c0	-0.0025629848
50	0x3e0b71bb	0.13617603
51	0xbd3e37c8	-0.046439916
52	0xbdf6ae21	-0.12044931
53	0xbd8920bf	-0.06695699
54	0x3d9aad7c	0.07552621
55	0x3d5f1110	0.05445963
56	0x3d225c7c	0.03963898
57	0xbd896d53	-0.06710305
58	0xbdcb0bae	-0.09914337
59	0x3d9e8292	0.07739748
60	0xbdb50686	-0.08839135
61	0x3e0898c1	0.13339521
62	0x3ce4d388	0.027932897
63	0x3a5a5f00	0.0008330196

actor.2.weight f4 [64, 64]
0	0x3dd246b6	0.10267393
1	0xbdf017d0	-0.11723292
2	0x3c03cd10	0.008044496
3	0xbdc5d20e	-0.096592054
4	0x3d9faed4	0.07797018
5	0xbce912d8	-0.028451368
6	0xbdbf99fc	-0.09355542
7	0x3de6d24a	0.11270578
8	0xbdb360f6	-0.08758728
9	0xbd9e3898	-0.07725638
10	0x3c2308b0	0.009950802
11	0xbd3ba830	-0.045814693
12	0xbd82b87e	-0.06382845
13	0x3d986d1c	0.07442686
14	0x3de0bc56	0.10973422
15	0xbdc9063c	-0.09815642
16	0x3da8934a	0.08231218
17	0x3c6298a0	0.013830334
18	0x3d15c108	0.036561042
19	0xbd5a4f80	-0.053298473
20	0x3d4fb754	0.050711945
21	0xbcbae360	-0.022813499
22	0x3cc59110	0.024117023
23	0x3c7a5820	0.0152798
24	0x3bfba580	0.0076796412
25	0xbda7d1f0	-0.08194339
26	0xbd60fb18	-0.05492696
27	0x3d284f80	0.041091442
28	0x3d897fd8	0.067138374
29	0xbd8dc636	-0.06922571
30	0xbde3fa52	-0.11131729
31	0xbdd7b140	-0.10531855
32	0x3c857d58	0.01629512
33	0x3dbc2c34	0.091881186
34	0xbd075554	-0.03304036
35	0x3dae8c5c	0.08522865
36	0xbddad98c	-0.10686025
37	0xbddeb5d8	-0.10874528
38	0xbcd46a78	-0.025929675
39	0xbde11626	-0.109905526
40	0xbdf649ee	-0.1202582
41	0x3988c200	0.00026084483
42	0xbdc69498	-0.09696311
43	0xbd124924	-0.035714284
44	0xbc1c2490	-0.009530202
45	0x3ddde44e	0.10834561
46	0xbd698280	-0.05700922
47	0xbc1f1870	-0.009710416
48	0x3d39706c	0.04527323
49	0x3ddf7420	0.10910821
50	0xbb0d2640	-0.0021537691
51	0xbdaf8f0a	-0.085722044
52	0x3cfa9d38	0.030592546
53	0x3c9cfa88	0.019162431
54	0x3dbafb80	0.09130001
55	0x3d77d22c	0.06050317
56	0x3df9a876	0.121903345
57	0xbd974e0e	-0.073879346
58	0x3df427b6	0.11921637
59	0x3da180ce	0.07885896
60	0xbca618d8	-0.020275518
61	0xbc3419e0	-0.010992497
62	0xbccdd960	-0.025128067
63	0xbde9dcda	-0.11419077
64	0xbd8831d2	-0.066501275
65	0x3d4d0bb0	0.050059974
66	0xbdc51aba	-0.09624238
67	0xbd07e670	-0.033178747
68	0x3daa889e	0.08326839
69	0x3ca73930	0.020413011
70	0xbdb4a5d6	-0.08820693
71	0x3b9c1020	0.0047626644
72	0xbde6a6fe	-0.1126232
73	0xbdd4d6de	-0.10392545
74	0xbc95bf48	-0.018279687
75	0x3dcbbe3c	0.09948394
76	0xbd730f1c	-0.05934058
77	0x3df24b3a	0.118307546
78	0x3d1d3d3c	0.038388476
79	0x3d3af60c	0.045644805
80	0xbd186cb4	-0.037213042
81	0x3cafef78	0.021476492
82	0x3d3e3720	0.04643929
83	0xbcf8cfe8	-0.030372575
84	0xbd7d3d8c	-0.061826274
85	0xbd063610	-0.0327664
86	0xbb835000	-0.0040073395
87	0x3dc3244e	0.09528409
88	0xbd95934e	-0.07303487
89	0x3d01f194	0.031724527
90	0xbc9b4388	-0.0189531
91	0xbda5b840	-0.080917835
92	0x3c900720	0.017581522
93	0x3b929320	0.004473105
94	0x3d6693ec	0.056293413
95	0xbddcd214	-0.10782257
96	0x3d466508	0.048436195
97	0x3c98a950	0.018635422
98	0xbb8b2400	-0.004246235
99	0xbdb2014c	-0.086916536
100	0xbc856810	-0.016284972
101	0x3daefd74	0.08544436
102	0xbde3dd12	-0.1112615
103	0x3cdebb10	0.027188808
104	0x3d1eb7d8	0.038749546
105	0xbd90a764	-0.07063177
106	0x3dede020	0.11615014
107	0xbdcb8a02	-0.09938432
108	0x3d82fb74	0.06395617
109	0xbbce0f20	-0.006288424
110	0x3d4c271c	0.049841985
111	0x3de47780	0.11155605
112	0x3d9a092e	0.07521282
113	0x3cd388f8	0.025822148
114	0xbdd38962	-0.10328938
115	0x3c3ff490	0.011716023
116	0x3de0a026	0.10968046
117	0xbdb21318	-0.08695048
118	0xbbec7500	-0.007216096
119	0x3bf2b280	0.0074065328
120	0xbd83304e	-0.06405698
121	0xbde27314	-0.11057106
122	0x3d135008	0.035964996
123	0x3d6b1e6c	0.05740206
124	0xbc33d480	-0.010975957
125	0x3c98b2f8	0.018640026
126	0xbde7dd0c	-0.11321458
127	0x3d1b148c	0.037861392
128	0xbd27bfc0	-0.04095435
129	0x3bdd2ea0	0.006749943
130	0xbdb57a38	-0.08861202
131	0xbdeb2c70	-0.11483085
132	0xbd1dab18	-0.038493246
133	0xbc97e238	-0.018540487
134	0x3d4a3e40	0.049375772
135	0xbd308f70	-0.043105543
136	0xbde5ec98	-0.11226767
137	0x3da3071e	0.07960342
138	0x3df5cd02	0.12001993
139	0x3d41a180	0.04727316
140	0xbdffe7b4	-0.12495366
141	0x3dc4ddae	0.096125945
142	0xbddf35a6	-0.108989045
143	0xbd8628ac	-0.06550726
144	0x3dd1a554	0.10236612
145	0x3de3ce8a	0.111233786
146	0x3dfe5042	0.12417652
147	0xbd2940c8	-0.041321546
148	0x3d8b8d9a	0.06814118
149	0x39ba7a00	0.00035567582
150	0xbdfa5e84	-0.12225059
151	0x3da935ca	0.082622126
152	0x3d709608	0.05873683
153	0xbdf13d24	-0.1177924
154	0x3bc93b00	0.0061410666
155	0xbcce4170	-0.025177687
156	0xbdd43e6a	-0.10363467
157	0xbd982bd2	-0.07430233
158	0x3dccda50	0.10002577
159	0xbd6a4478	-0.057194203
160	0x3d62ba8c	0.055353686
161	0x3d8a20f6	0.06744568
162	0xbcfcde38	-0.03086768
163	0x3d7cbdc0	0.061704397
164	0x3ded4e52	0.11587204
165	0x3bd88520	0.0066076666
166	0x3d590784	0.052985683
167	0x3de71264	0.112828046
168	0xbdd02c6a	-0.10164721
169	0xbdceac02	-0.10091402
170	0x3c5e7f80	0.013580203
171	0xbdcd5a6a	-0.10027011
172	0xbcc8aef8	-0.024497494
173	0xbcfb1490	-0.030649453
174	0x3b579e80	0.003290087
175	0x3c036100	0.008018732
176	0x388f1000	6.8217516e-05
177	0x3d4c5af8	0.049891442
178	0xbcd14010	-0.025543243
179	0x3df5bb08	0.11998564
180	0xbdb85fca	-0.09002645
181	0xbd59ae98	-0.05314502
182	0xbd926fac	-0.07150206
183	0xbd5f454c	-0.054509446
184	0x3c34c4d0	0.011033252
185	0xbcb89cc0	-0.022535682
186	0xbd773bd0	-0.060359776
187	0xbd87a356	-0.06622951
188	0x3d4ff3e8	0.050769717
189	0x3da23230	0.07919729
190	0x3dbab840	0.09117174
191	0x3d0ffe00	0.035154343
192	0xbda8c524	-0.082407266
193	0xbdf21aa8	-0.118214905
194	0x3d581dac	0.052762672
195	0x3deffd06	0.11718182
196	0x3dd18922	0.10231234
197	0x3d5144f8	0.051091164
198	0xbde3fe1c	-0.11132452
199	0xbd5448e4	-0.051827326
200	0xbdb91762	-0.09037663
201	0xbb209ac0	-0.00245063
202	0xbc0e9c70	-0.00870429
203	0x3d974c1a	0.07387562
204	0x3d1cf858	0.038322777
205	0xbce60858	-0.02808015
206	0x3d949650	0.07255232
207	0xbddde716	-0.10835092
208	0xbcb81a18	-0.02247338
209	0xbd681a70	-0.056665838
210	0xbdd6f0da	-0.104951575
211	0x3c2191d0	0.009861425
212	0x3d600c0c	0.05469899
213	0xbcec4788	-0.028842703
214	0x3cfcab40	0.030843377
215	0xba768000	-0.0009403229
216	0x3d514664	0.05109252
217	0xbbc0b3c0	-0.005880803
218	0x3b835960	0.004008457
219	0x3d513774	0.051078275
220	0xbb373240	-0.0027953535
221	0xbdd7da50	-0.10539687
222	0xbd2b0f9c	-0.041762933
223	0xbd193f1c	-0.0374137
224	0x3c3e89e0	0.011629552
225	0xbdbb5168	-0.091463864
226	0xbdff3d36	-0.12462847
227	0xbdde69de	-0.10860036
228	0x3c563210	0.013073459
229	0x3d4b8440	0.04968667
230	0xbdea3366	-0.11435585
231	0xbd87b56e	-0.06626402
232	0x3dc1bdf6	0.0946006
233	0xbaefc800	-0.0018293858
234	0x3d6d438c	0.057925746
235	0xbd3d8364	-0.046267882
236	0xbbd86040	-0.006603271
237	0x3c1d8700	0.009614706
238	0x3dec3384	0.11533263
239	0xbde2ec10	-0.110801816
240	0xbda3bb5a	-0.07994719
241	0x3ca3c0b8	0.019989356
242	0xbdfa9a28	-0.12236434
243	0xbc371880	-0.011175275
244	0xbd9b1482	-0.07572271
245	0xbd9bfd18	-0.07616633
246	0xbd110f00	-0.035414696
247	0x3dccd862	0.10002209
248	0x3dff1dbe	0.12456845
249	0xbdd25d02	-0.10271646
250	0xbb21b340	-0.0024673492
251	0xbd1b94e0	-0.037983775
252	0x3cb19f58	0.021682426
253	0xbdbcc4ba	-0.0921721
254	0xbd1b7088	-0.037949115
255	0x3d8abace	0.067739114

actor.2.bias f4 [64]
0	0x3ddb2436	0.10700266
1	0xbd2361c8	-0.039888173
2	0x3c9f9468	0.019479945
3	0xbdb8c45a	-0.09021826
4	0x3d92d5f2	0.07169713
5	0xbcb0afc0	-0.02156818
6	0x3bc36e20	0.0059640557
7	0xbb838c20	-0.004014507
8	0x3d3f406c	0.046692297
9	0xbd9fe266	-0.07806854
10	0x3d83a9f4	0.064289
11	0xbd56edec	-0.052472994
12	0xbdcc7a9c	-0.099843234
13	0xbdca8a54	-0.09889665
14	0x3d4bf04c	0.04978971
15	0xbda1dfe4	-0.07904032
16	0xbdb9126c	-0.09036717
17	0xbd800624	-0.06251171
18	0x3dd5beae	0.1043676
19	0xbd9e4830	-0.077286124
20	0x3c92ae30	0.017905325
21	0x3df7ac3a	0.120933965
22	0xbd7c3140	-0.061570406
23	0xbd6e91d8	-0.058244556
24	0x3dcd0082	0.100098625
25	0x3de7bd64	0.1131542
26	0xbdf01e8e	-0.11724578
27	0x3ddfe934	0.10933152
28	0xbd09e778	-0.03366801
29	0xbd8597c0	-0.06523085
30	0xbd02da18	-0.03194627
31	0x3dc78630	0.09742391
32	0xbdf1143e	-0.11771439
33	0xbbe582e0	-0.007004127
34	0xbdde0782	-0.10841276
35	0x3da24a1a	0.0792429
36	0x3dc71aa8	0.09721881
37	0x3d420a5c	0.04737316
38	0xbb5e0540	-0.003387764
39	0xbcd3f368	-0.025872901
40	0xbd156d50	-0.0364812
41	0x3d7a627c	0.06112908
42	0xbb222e80	-0.0024746954
43	0xbd01de98	-0.031706423
44	0x3d8ae514	0.067819744
45	0xbdf4610a	-0.11932571
46	0x3d1a2b24	0.0376388
47	0x3cd3aa28	0.025837973
48	0x3d88607e	0.066590294
49	0xbd52ad30	-0.051434696
50	0x3dd031e4	0.10165766
51	0xbdaee572	-0.08539857
52	0x3d465d84	0.048429027
53	0x3a2c6700	0.00065766275
54	0x3da61078	0.0810861
55	0x3d3d63c4	0.046237722
56	0xbd010824	-0.031501904
57	0xbdab63aa	-0.08368619
58	0xbc7bbab0	-0.015364334
59	0xbbe6db40	-0.0070451796
60	0x3a8a7d00	0.0010565817
61	0xbde31e9c	-0.11089823
62	0xbc07f4e0	-0.008298129
63	0xbb919360	-0.0044426173

actor.4.weight f4 [3, 64]
0	0x3da57394	0.080786854
1	0x3de9a636	0.11408655
2	0x3d4f6938	0.050637454
3	0xbadb3880	-0.0016725212
4	0xbdd2dd88	-0.1029616
5	0xbc2d7bc0	-0.010588586
6	0x3daa4da0	0.08315587
7	0xbae06580	-0.0017120093
8	0xbdf3cd82	-0.11904432
9	0x3c87cd80	0.016577482
10	0x3c0a0ee0	0.008426398
11	0xbd8ba266	-0.068180844
12	0x3dc14482	0.09436895
13	0x3dc20f14	0.09475532
14	0xbcba2fc0	-0.022727847
15	0x3de09592	0.10966028
16	0x3dcf3764	0.10117987
17	0xbdbc81fe	-0.092044815
18	0xbd9fe89e	-0.0780804
19	0x3df4f076	0.11959927
20	0x3d676170	0.056489408
21	0x3d766dd8	0.06016335
22	0x3c0cc260	0.0085912645
23	0xbdd5430e	-0.1041318
24	0xbd44278c	-0.047889277
25	0xbd8a206e	-0.06744467
26	0xbc6249d0	-0.013811544
27	0x38f1e000	0.00011533499
28	0xbdd32fc2	-0.103118435
29	0x3d5081e0	0.05090511
30	0xbdfc789a	-0.123276904
31	0xbb86c7e0	-0.0041131824
32	0x3cbf9490	0.02338627
33	0x3ca6b680	0.020350695
34	0xbdea4a50	-0.11439955
35	0xbdf64acc	-0.12025985
36	0x3da83c5c	0.08214638
37	0xbcfbfb38	-0.030759439
38	0x3dec5590	0.11539757
39	0xbc6c8fd0	-0.014438584
40	0xbceaa138	-0.028641328
41	0x3da29206	0.07938008
42	0x3cbd71d0	0.02312556
43	0x3d7c4fa4	0.06159939
44	0x3d404d6c	0.046948835
45	0xbd8d8592	-0.06910242
46	0x3d5a7b30	0.053340137
47	0x3db30a0a	0.08742149
48	0xbd33a070	-0.043854177
49	0x3db6b41a	0.089210704
50	0xbd40c028	-0.047058254
51	0xbdc5ffaa	-0.09667905
52	0x3df71cb0	0.120660186
53	0xbd6cda60	-0.057825446
54	0x3ca91e78	0.020644411
55	0x3dd686e4	0.10474947
56	0xbce14b90	-0.027501851
57	0x3dc97dba	0.098384336
58	0xbd308de0	-0.043104053
59	0xbdeb7778	-0.11497396
60	0x3d8688d2	0.06569065
61	0x3cbb47a8	0.022861317
62	0x3c9d3460	0.019190013
63	0x3de43672	0.11143197
64	0x3ddf0f34	0.10891572
65	0xbbbdcc60	-0.0057921857
66	0xbda3b2de	-0.079931006
67	0x3d9a792c	0.07542643
68	0x3d5b1bf4	0.053493455
69	0x3d643b0c	0.055720374
70	0x3c1a5450	0.009419516
71	0xbd924874	-0.071427256
72	0xbc4fdaf0	-0.012686476
73	0x3d81fc1a	0.06346913
74	0x3d9106a8	0.07081348
75	0xbdd245f0	-0.10267246
76	0xbca74590	-0.020418912
77	0xbd1ef5d4	-0.03880866
78	0x3ca663a0	0.020311177
79	0xbd5fa5b8	-0.0546014
80	0xbd9bd6b0	-0.07609308
81	0x3df16bbc	0.11788127
82	0xbd0b1190	-0.033952296
83	0xbdcf4872	-0.1012124
84	0xbcf5f488	-0.030023828
85	0xbdda163a	-0.10648771
86	0x3deb5106	0.11490063
87	0x3d22f328	0.039782673
88	0xbda87602	-0.08225633
89	0x3d0bb798	0.034110636
90	0xbddf4904	-0.109025985
91	0xbdcbecbe	-0.09957264
92	0xbb386140	-0.0028134137
93	0x3cfc26f0	0.030780286
94	0x3dacd21c	0.08438513
95	0x3daf1c44	0.08550313
96	0xbdb6d44a	-0.0892721
97	0x3d3831ac	0.044969246
98	0xbdb496a6	-0.088177964
99	0x3df4a550	0.11945593
100	0x3cf67340	0.030084252
101	0xbc397350	-0.011318997
102	0xbd3e0e88	-0.046400577
103	0xbd60371c	-0.054740056
104	0xbddf92c0	-0.10916662
105	0x3df4a982	0.119463935
106	0x3d8c5468	0.06852037
107	0x3db73e36	0.08947413
108	0xbde4fbc4	-0.11180833
109	0x3dd1f94a	0.10252626
110	0xbd204ea8	-0.039137512
111	0x3d85b3b4	0.06528416
112	0x3dadf3d6	0.08493774
113	0xbd8dd6fa	-0.06925769
114	0x3df061b0	0.117373824
115	0x3d0d5d28	0.03451267
116	0xbdfe489c	-0.12416193
117	0x3d82a7b0	0.0637964
118	0x3de34570	0.110972285
119	0x3d5a6cb0	0.05332631
120	0x3d5290e4	0.05140771
121	0x3d4c0078	0.049805135
122	0x3db51964	0.088427335
123	0x3cc7e3d0	0.024400622
124	0x3dae4cd8	0.085107505
125	0xbcfafea0	-0.030638993
126	0x3dbfce14	0.09365478
127	0x3bd615e0	0.0065333694
128	0xbcb46568	-0.02202101
129	0xbd5fd18c	-0.0546432
130	0xbde5a1e4	-0.11212519
131	0x3de7a4ac	0.113107055
132	0x3c61a100	0.013771296
133	0xbc1f4020	-0.009719878
134	0xbb37bf80	-0.0028037727
135	0x3d8ce344	0.06879285
136	0x3dde6e62	0.108608976
137	0x3da1f56c	0.07908139
138	0x3c924110	0.01785329
139	0x3dd1daf6	0.102468416
140	0x3dfc07fe	0.12306212
141	0xbbd95000	-0.006631851
142	0xbd80290c	-0.06257829
143	0x3cfe5b28	0.031049326
144	0x3d190e78	0.037367314
145	0x3becd500	0.00722754
146	0xbc30ea60	-0.010798067
147	0x3cc184a0	0.02362281
148	0x3cf90d20	0.030401766
149	0xbd9e8838	-0.077408254
150	0x3a7fdf00	0.00097607076
151	0xbd746970	-0.059670866
152	0xbdaf5252	-0.08560623
153	0x3b3dbe40	0.002895251
154	0x3d8cd4ce	0.06876527
155	0xbbbe8b60	-0.0058149546
156	0x3dd3b09a	0.103364184
157	0xbd930178	-0.071780145
158	0xbde4148c	-0.111367315
159	0x3da4155c	0.080118865
160	0xbda01aac	-0.07817587
161	0x3cb81d38	0.02247487
162	0x3daa101c	0.08303854
163	0x3d4d77a4	0.050162926
164	0x3df1ef2a	0.11813195
165	0xbdd9aa16	-0.106281444
166	0x3dbaa658	0.09113759
167	0x3da531f2	0.08066167
168	0x3def7d88	0.11693865
169	0x3da8e9f0	0.08247745
170	0x3d657efc	0.056029305
171	0xbb02af80	-0.0019941032
172	0xbdcd946e	-0.10038076
173	0x3dc95a50	0.09831679
174	0x3d1adf00	0.037810326
175	0xbbf41320	-0.007448569
176	0xbd365130	-0.04451102
177	0x3d5ffe5c	0.054685935
178	0x3dee36ba	0.11631532
179	0x3da78f2e	0.08181606
180	0x3de5bed6	0.1121804
181	0x3d56c084	0.05242969
182	0x3dca1ed8	0.09869164
183	0x3dd52f2e	0.104093894
184	0xbb01d740	-0.0019812137
185	0xbc5fc0c0	-0.013656795
186	0x3d6b2ac4	0.05741383
187	0x3aaf7f00	0.0013389289
188	0xbc5c7940	-0.013456643
189	0x3d8b3bd0	0.06798518
190	0x3d9bcc9c	0.076073855
191	0x3a63ae00	0.0008685291

actor.4.bias f4 [3]
0	0x3d721e08	0.05911067
1	0xbd2a4f0c	-0.04157929
2	0xbda93128	-0.08261329

critic.0.weight f4 [64, 52]
0	0xbd9e2efa	-0.07723804
1	0xbd643c7a	-0.055721737
2	0x3e0682ef	0.13135885
3	0xbdaac78e	-0.08338843
4	0xbdfc48d8	-0.12318581
5	0xbc592370	-0.013253078
6	0x3db6d740	0.089277744
7	0x3dfd5a46	0.12370734
8	0x3e0a41bf	0.13501643
9	0x3cd441d0	0.025910288
10	0xbbb36420	-0.0054745823
11	0xbcfc330c	-0.03078606
12	0xbd652dfc	-0.055952057
13	0xbdb2c62e	-0.08729206
14	0x3de0ef96	0.109831974
15	0x3dd6c134	0.10486069
16	0xbda6f807	-0.08152776
17	0x3d9c403e	0.07629441
18	0x3dc1dee2	0.0946634
19	0xbdd4181e	-0.103561625
20	0xbdfc7e21	-0.12328745
21	0xbd5d3826	-0.054008625
22	0xbce214d4	-0.027597822
23	0xbdf0b319	-0.1175291
24	0x3d139cf8	0.03603837
25	0xbbe1d020	-0.0068912655
26	0xbdabdb96	-0.08391492
27	0x3d75e8e8	0.06003657
28	0x3cef5bf0	0.029218644
29	0xbd5ef96c	-0.054437086
30	0xbdad5ba6	-0.08464746
31	0x3d3ca2a8	0.04605356
32	0xbd0f5130	-0.034989536
33	0xbd661fd4	-0.056182697
34	0x3dfb4a46	0.12270026
35	0xbc830ecc	-0.015998267
36	0x3df2daa6	0.1185811
37	0xbdf76b92	-0.12081064
38	0x3b442f80	0.0029935539
39	0x3cd7fc38	0.026365384
40	0xbd8b9544	-0.068155795
41	0x3cb2af58	0.021812126
42	0xbc00c000	-0.007858276
43	0xbe06f6c1	-0.13180067
44	0xbdc73c68	-0.097283185
45	0x3db0c78e	0.08631812
46	0xbd400bfa	-0.04688642
47	0x3cf59c70	0.029981822
48	0xbd272c70	-0.040813863
49	0x3cccefc0	0.025016665
50	0xbdcee7c2	-0.10102798
51	0x3cc94000	0.02456665
52	0x3d0726f8	0.032996148
53	0x3ca5aa38	0.020222768
54	0x3dedc20e	0.116092786
55	0x3d599f68	0.053130537
56	0xbe049e76	-0.12951073
57	0xbbbc6e80	-0.0057504773
58	0x3e0cc773	0.13747959
59	0x3df4a8fe	0.11946295
60	0x3dca6814	0.098831326
61	0x3db4bd68	0.08825189
62	0xbd564784	-0.052314296
63	0x3c4215d0	0.011846021
64	0x3d60a5a0	0.054845452
65	0xbde75ddb	-0.112971984
66	0x3e0de495	0.13856728
67	0xbdffdd47	-0.12493377
68	0xbccfd218	-0.025368735
69	0x3dd2e272	0.10297097
70	0xbd7dabea	-0.06193153
71	0x3d17220c	0.036897704
72	0x3db7205a	0.089417174
73	0x3d498a98	0.04920444
74	0x3df0e302	0.11762048
75	0xbdad4099	-0.08459587
76	0x3dc597a4	0.09648064
77	0xbd0add24	-0.033902302
78	0x3d975422	0.07389094
79	0xbd86754a	-0.0656534
80	0xbd1cd23c	-0.038286433
81	0xbd55d72c	-0.052207157
82	0xbd823f2b	-0.063597046
83	0xbd82af14	-0.0638105
84	0xbda084e0	-0.07837844
85	0x3e0b2b81	0.13590814
86	0x3d971d7a	0.07378669
87	0x3db5b1d8	0.08871812
88	0xbdf23739	-0.11826939
89	0xbdab831a	-0.08374615
90	0xbdca63f6	-0.09882347
91	0xbda82576	-0.0821027
92	0x3de403c2	0.11133529
93	0x3d21f048	0.03953579
94	0xbda9fdb4	-0.08300343
95	0x3e043261	0.12909843
96	0xbd7f8294	-0.06238039
97	0x3da295c4	0.07938722
98	0x3d27c6a4	0.040960923
99	0xbd8e506e	-0.069489345
100	0x3d96ed04	0.07369426
101	0xbd4e432e	-0.050357036
102	0x3de71d9e	0.11284946
103	0x3dd7f5e0	0.10544944
104	0x3d83c9a0	0.06434941
105	0xbd4a5c5e	-0.049404494
106	0xbe07285a	-0.13198987
107	0xbe026442	-0.12733558
108	0xbd9053b4	-0.07047215
109	0xbd88537e	-0.0665655
110	0x3e0a9a0f	0.13535331
111	0x3aaf2a00	0.0013363957
112	0xbd45be26	-0.048277043
113	0xbd581a70	-0.052759588
114	0xbe033a96	-0.12815318
115	0xbdfcda91	-0.12346376
116	0xbd894282	-0.067021385
117	0x3dab10ec	0.08352837
118	0xbd3c2574	-0.045934156
119	0xbdf05b0c	-0.11736116
120	0xbd8d7abe	-0.06908177
121	0x3dc28580	0.09498119
122	0x3db142f0	0.086553454
123	0xbdc1a17a	-0.09454627
124	0xbdf60405	-0.120124854
125	0x3ba6aea0	0.005086735
126	0x3dc5c9e4	0.09657648
127	0x3db10cde	0.08645032
128	0x3d9e9ce6	0.0774477
129	0xbdf8ffbf	-0.12158155
130	0x3d519308	0.05116561
131	0xbae83680	-0.0017716438
132	0xbda4c1cc	-0.08044776
133	0xbdb33d80	-0.087519646
134	0x3e06fb53	0.1318181
135	0xbdf6e6eb	-0.12055763
136	0xbdd12c62	-0.102135435
137	0x3dc56270	0.09637916
138	0xbd314464	-0.043278113
139	0x3d5806d8	0.0527409
140	0x3e0a6961	0.13516761
141	0xbe0aa6e7	-0.1354023
142	0x3d101ddc	0.035184726
143	0x3c752ee0	0.014964789
144	0x3cbe99b0	0.023266643
145	0xb966dc00	-0.00022016466
146	0xbbdee740	-0.0068024695
147	0x3de59182	0.11209394
148	0x3df0592a	0.11735757
149	0xbdb5e675	-0.08881847
150	0x3deee626	0.11664991
151	0xbd6d5646	-0.057943605
152	0xbdb66206	-0.08905415
153	0xbdf66088	-0.120301306
154	0xbe0048ec	-0.12527817
155	0x3d85aab8	0.06526703
156	0x3d90e2f4	0.07074538
157	0x3db3f580	0.0878706
158	0xbe01b7b2	-0.1266773
159	0xbdc0e7b6	-0.09419195
160	0xbc9724f8	-0.018450245
161	0xbd31929e	-0.043352716
162	0x3cdb71a8	0.026787594
163	0x3d9e6bc2	0.07735397
164	0xbc3eb6f0	-0.011640295
165	0x3d7fece8	0.06248179
166	0x3c516930	0.012781426
167	0x3da79690	0.081830144
168	0x3d8d6c60	0.069054365
169	0xbdf27514	-0.11838737
170	0xbc72f610	-0.014829174
171	0xbd857fc6	-0.065185115
172	0xbd836c80	-0.06417179
173	0xbe08c4d8	-0.1335634
174	0x3dba11d0	0.09085429
175	0xbdef01e2	-0.11670281
176	0xbbb0f580	-0.0054003596
177	0x3d5b51a0	0.05354464
178	0xbc881620	-0.016612113
179	0xbdb83d86	-0.0899611
180	0xbd8e9bfc	-0.069633454
181	0x3dccc52e	0.099985465
182	0xbcec6d48	-0.028860703
183	0xbccbdb84	-0.024884947
184	0xbd68deac	-0.05685298
185	0xbd94b5c9	-0.07261235
186	0xbd0c1ce0	-0.034207225
187	0x3d37472c	0.04474561
188	0x3c9ed3f0	0.019388169
189	0xbd02d25e	-0.031938903
190	0x3d13f6b8	0.03612396
191	0x3d84cfba	0.06484933
192	0xbdedc66a	-0.1161011
193	0xbdce13fa	-0.10062404
194	0xbda8888e	-0.08229171
195	0xbdd09ed2	-0.101865426
196	0x3dd7d2d0	0.10538256
197	0x3e0d052b	0.13771503
198	0x3bc10e80	0.005891621
199	0xbcb23300	-0.021752834
200	0xbd0b4e40	-0.034010172
201	0xbe062556	-0.1310018
202	0xbc70ee60	-0.0147052705
203	0x3daa5386	0.08316712
204	0x3d97f6ce	0.07420121
205	0xbdf9d4ae	-0.121987686
206	0xbdc7500c	-0.097320646
207	0xbc00f700	-0.007871389
208	0x3e035501	0.12825395
209	0xbd8c7f0e	-0.06860171
210	0x3dadbf92	0.08483805
211	0x3d634eac	0.05549495
212	0xbdeecb1e	-0.11659835
213	0xbd5d8a94	-0.054087237
214	0xbda18bd6	-0.07888
215	0x3db400a4	0.08789185
216	0xbdb0a282	-0.08624746
217	0x3d16cbf0	0.036815584
218	0xbdaf5d63	-0.08562734
219	0x3e0d16b7	0.13778196
220	0xbe060804	-0.13088995
221	0x3dd2daca	0.10295637
222	0x3db6ce7a	0.08926101
223	0x3c6162e0	0.013756484
224	0x3de4548e	0.1114894
225	0x3cfa9fd0	0.030593783
226	0xbdfe318b	-0.12411793
227	0x3d0527c0	0.03250861
228	0x3dcae6e6	0.09907322
229	0xbd1ed0aa	-0.038773216
230	0xbe0ca84c	-0.13736075
231	0x3d030c74	0.031994298
232	0x3b6cf0c0	0.003615424
233	0x3e079577	0.1324061
234	0x3e08920f	0.13336967
235	0x3d7fcbb0	0.06245011
236	0x3d779e78	0.060453862
237	0xbd9d98fe	-0.076951966
238	0xbda2a243	-0.07941105
239	0xbc17ca30	-0.009264514
240	0x3d953396	0.0728523
241	0x3dc9eaf8	0.0985927
242	0xbdf1cd32	-0.11806716
243	0xbdfc2d7e	-0.123133644
244	0xbcc91958	-0.024548218
245	0x3e09d135	0.13458712
246	0xbde21be7	-0.11040478
247	0x3dd576bc	0.104230374
248	0x3d6966c4	0.05698277
249	0x3ce8b2e0	0.028405607
250	0xbd4058c6	-0.04695966
251	0x3ceaaac8	0.028645888
252	0xbd804950	-0.06263983
253	0xbe000b93	-0.12504415
254	0x3d660e60	0.056166053
255	0x3d495a60	0.049158454

critic.0.bias f4 [64]
0	0x3d9fb134	0.07797471
1	0xbd87a46a	-0.06623156
2	0x3d905874	0.07048121
3	0xbe094870	-0.13406539
4	0xbd11aeb2	-0.035566993
5	0xbdc08da8	-0.09402019
6	0x3dec41e2	0.11536004
7	0x3d32dd8c	0.043668315
8	0xbdcd6f3b	-0.10030981
9	0x3d40b4f8	0.047047585
10	0x3de522ea	0.111883
11	0x3dfe5bee	0.12419878
12	0xbd383832	-0.044975467
13	0x3de8cd1e	0.11367248
14	0xbd71f97c	-0.059075817
15	0x3d9b8da8	0.07595378
16	0xbdeb3413	-0.11484542
17	0x3d804280	0.06262684
18	0x3d95e086	0.07318215
19	0xbdc1f096	-0.09469716
20	0x3ca0a010	0.019607574
21	0xbd97c232	-0.07410087
22	0x3dde388e	0.10850631
23	0x3cc344c8	0.023836508
24	0x3c0202b0	0.007935211
25	0xbd3d44f0	-0.046208322
26	0x3db833f2	0.08994283
27	0x3d565b7c	0.05233334
28	0x3db13eca	0.08654554
29	0x3e001eb9	0.1251172
30	0xbdd09edb	-0.10186549
31	0xbda7b990	-0.0818969
32	0xbdd2a4a6	-0.102853104
33	0xbdab61d0	-0.08368266
34	0x3c8d5838	0.01725398
35	0x3d35084c	0.044197366
36	0x3e0a9e71	0.13537003
37	0xbd26feba	-0.04077027
38	0x3db80ade	0.08986448
39	0xbd6a943a	-0.057270266
40	0x3cddd9c0	0.02708137
41	0xbd8301eb	-0.0639685
42	0xbe0d59e8	-0.13803828
43	0xbc38ff50	-0.01129134
44	0x3d38003c	0.0449221
45	0xbe09219a	-0.13391724
46	0x3ca7ecb0	0.020498604
47	0x3de4dfe6	0.11175518
48	0xbd799f3c	-0.060942873
49	0xbd89884e	-0.06715451
50	0x3ca19788	0.019725576
51	0xbd97544e	-0.07389127
52	0xbd15357c	-0.03642796
53	0xbd8b466e	-0.06800543
54	0xbdf58139	-0.11987538
55	0xbd0f6504	-0.035008445
56	0xbe05d6c4	-0.13070208
57	0x3e0294ad	0.12752028
58	0xbd002c52	-0.031292267
59	0x3ddeb50c	0.10874376
60	0x3d90dc86	0.070733115
61	0xbd7c76ca	-0.061636724
62	0xbd2087f4	-0.039192155
63	0xbda8601b	-0.08221456

critic.2.weight f4 [64, 64]
0	0xbdea3ca0	-0.114373446
1	0xbdb4bfc4	-0.08825639
2	0x3dae2122	0.08502413
3	0x3dcd9b2c	0.10039362
4	0x3da20814	0.07911697
5	0x3dac48d6	0.0841233
6	0xbdf1f762	-0.11814763
7	0x3dd1627e	0.10223864
8	0xbda8f724	-0.08250263
9	0x3dc4b97c	0.09605691
10	0x3de69aac	0.1125997
11	0xbd7f7140	-0.062363863
12	0xbd6835c0	-0.056691885
13	0xbd376ca8	-0.044781357
14	0xbdce6e2c	-0.10079607
15	0x3c319170	0.010837898
16	0xbde85b14	-0.11345497
17	0xbd5d1830	-0.053978145
18	0xbce652f0	-0.02811572
19	0xbc6d0990	-0.014467612
20	0xbde299ec	-0.110645145
21	0x3de37608	0.11106497
22	0x3bfa4540	0.00763765
23	0x3dbef8ea	0.0932482
24	0x3d94667a	0.07246108
25	0x3c722fc0	0.014781892
26	0x3da8d760	0.082442045
27	0x3c08c470	0.008347616
28	0xbc098e10	-0.008395687
29	0x3d9284c0	0.07154226
30	0x3d3b8610	0.04578215
31	0xbd388e64	-0.04505767
32	0xbd4b3c34	-0.04961796
33	0x3c6df650	0.0145240575
34	0xbd655818	-0.055992216
35	0x3b98a620	0.0046584755
36	0xbc008640	-0.007844508
37	0xbd2f1efc	-0.04275416
38	0x3c22ffb0	0.009948656
39	0x3d03de58	0.032194465
40	0xbd1337c8	-0.03594187
41	0xbd252868	-0.040321738
42	0x3daed03a	0.0853581
43	0x3df3f8ea	0.11912711
44	0x3c9f1038	0.019416913
45	0x3d588870	0.052864492
46	0x3cc3f708	0.023921505
47	0x3ca376e0	0.019954145
48	0x3daf0416	0.08545701
49	0xbc468750	-0.012117222
50	0xbbeaaf60	-0.0071620196
51	0x3dbc228a	0.09186275
52	0xbd335018	-0.043777555
53	0xbd69a5a8	-0.057042748
54	0x3d1001b0	0.03515786
55	0x3cea1970	0.028576583
56	0x3c84f5c0	0.016230464
57	0x3ddaa084	0.10675147
58	0x3c3df620	0.011594325
59	0xbda05578	-0.07828802
60	0x3d2b1930	0.041772068
61	0xbd0fb8b4	-0.035088256
62	0xbdd50494	-0.10401264
63	0x3dd2e9e0	0.10298514
64	0xbceebb28	-0.029141977
65	0xbcc3cfc8	-0.023902789
66	0xbd977318	-0.07394999
67	0xbd487cf8	-0.048947304
68	0xbb010f40	-0.0019692928
69	0x3d95a0ce	0.07306062
70	0x3dff722e	0.1247295
71	0xbd0adacc	-0.033900067
72	0x3db5d08e	0.08877669
73	0x3dd5500c	0.10415658
74	0xbdbf0d5a	-0.093287185
75	0xbd9a9a54	-0.07548967
76	0xbcbd0a28	-0.023076132
77	0x3d4de258	0.050264686
78	0x3c3795b0	0.011205122
79	0x3dcc0e50	0.099636674
80	0x3d683b44	0.056697145
81	0x3c273a80	0.010206819
82	0x3dfa2152	0.122133866
83	0x3db31366	0.08743934
84	0xbd7b1be4	-0.061305895
85	0xbca30648	-0.019900456
86	0xbc9fcc40	-0.019506574
87	0xbdc77fce	-0.09741174
88	0xbd985ee8	-0.07439977
89	0x3dc37182	0.09543134
90	0x3d870058	0.065918624
91	0xbd57795c	-0.05260597
92	0xbd2cdbc0	-0.042201757
93	0x3d4bd820	0.04976666
94	0xbd2aae38	-0.041670054
95	0xbdb432fa	-0.087987855
96	0xbd986e5c	-0.074429244
97	0xbda9fd92	-0.08300318
98	0x3c71eaf0	0.014765486
99	0x3d0aef24	0.03391947
100	0x3d8c8ab6	0.068623945
101	0xbdfa2ce2	-0.12215592
102	0xbd007610	-0.031362593
103	0x3d18284c	0.037147805
104	0x3dcde748	0.10053879
105	0x3d928b14	0.07155433
106	0xbdc767b4	-0.09736577
107	0xbda47144	-0.08029416
108	0x3cf72f80	0.030174017
109	0xbd229404	-0.03969194
110	0x3dfcbdfe	0.12340926
111	0xbdd868a4	-0.105668336
112	0x3bb0be80	0.005393803
113	0x3db49342	0.0881715
114	0xbd01efd0	-0.031722844
115	0x3c71d070	0.014759168
116	0xbdea34bc	-0.114358395
117	0xbd86a5a2	-0.06574561
118	0x3d31f9f0	0.04345125
119	0xbdbf7060	-0.09347606
120	0x3dc76536	0.09736101
121	0x3d9cf63e	0.076641545
122	0xbd2b622c	-0.04184167
123	0xbda8fc92	-0.08251299
124	0xbdf0f6f2	-0.11765851
125	0xbdec2622	-0.11530711
126	0x3d719040	0.05897546
127	0xbcc58858	-0.024112865
128	0x3d831186	0.06399827
129	0xbdc3fe46	-0.09569983
130	0xbbbbb6e0	-0.0057285875
131	0xbd0d901c	-0.03456126
132	0xbdaed760	-0.08537173
133	0xbd8da188	-0.06915575
134	0x3dc73764	0.09727362
135	0x3dd75c44	0.10515645
136	0xbd81e846	-0.06343131
137	0x3de115a2	0.10990454
138	0xbcdbe148	-0.02684082
139	0xbd5884d0	-0.052861035
140	0x3d8362dc	0.0641534
141	0x3da729e2	0.081622854
142	0xbd9dc680	-0.077038765
143	0x3df7b8c2	0.12095787
144	0xbd5f87dc	-0.054572925
145	0x3df2ef6c	0.11862072
146	0x3d401f40	0.046904802
147	0x3c74fbc0	0.0149526
148	0x3dd024ea	0.10163291
149	0x3cc3dbd0	0.023908526
150	0x3b760400	0.0037539005
151	0x3cc39758	0.023875877
152	0xbdaae3a8	-0.08344203
153	0x3df231f4	0.11825934
154	0xbd46a294	-0.04849489
155	0xbcb647e0	-0.02225107
156	0xbd36bb34	-0.044612125
157	0x3d0c5268	0.034258276
158	0xbdf53f90	-0.11975014
159	0xbdebe484	-0.11518195
160	0xbdf59b2e	-0.11992489
161	0xbdd93b5a	-0.106070235
162	0xbc3ffbd0	-0.011717752
163	0xbdc201ca	-0.094729975
164	0xbd94bc44	-0.07262471
165	0x3c9234f0	0.017847508
166	0x3d3b7924	0.045769826
167	0xbc204b20	-0.009783536
168	0xbd5cd578	-0.053914517
169	0xbd3c2c20	-0.04594052
170	0x3df0c922	0.11757113
171	0xbd82d960	-0.06389117
172	0x3decfa52	0.11571182
173	0xbdf6cf2e	-0.12051235
174	0xbdcf2fbe	-0.10116528
175	0x3cd12028	0.025528029
176	0x3cb945a0	0.022616208
177	0x3da647b6	0.081191465
178	0xbd5f4124	-0.054505482
179	0xbdcd3ad0	-0.10020983
180	0x3d8b3fca	0.06799276
181	0xbd43fe58	-0.047849983
182	0xbd43b588	-0.047780544
183	0xbdd3370a	-0.10313232
184	0x3de25de2	0.11053063
185	0x3da58a62	0.08083035
186	0x3b3ac340	0.0028497726
187	0xbde1859c	-0.11011812
188	0x3d4132a8	0.04716745
189	0x3ce9fc00	0.028562546
190	0x3d2ae294	0.041719988
191	0x3d93cad2	0.07216419
192	0x3d800a08	0.06251913
193	0xbc21ee70	-0.009883508
194	0xbd8cabec	-0.06868729
195	0xbca83d68	-0.020537093
196	0xbd5e9294	-0.054339007
197	0xbde64238	-0.11243099
198	0x3d008874	0.03138013
199	0xbc072ff0	-0.008251175
200	0xbdaa92e6	-0.083288
201	0x3d894cce	0.067041025
202	0xbde54910	-0.11195576
203	0xbdd8c0fe	-0.10583685
204	0xbdacc494	-0.08435932
205	0xbcda9f40	-0.026687264
206	0xbdacc198	-0.084353626
207	0xbbd29540	-0.0064264834
208	0xbdc0d2da	-0.09415217
209	0x3dde328c	0.10849485
210	0xbdebd296	-0.115147755
211	0xbcb85b08	-0.022504345
212	0xbd32ef38	-0.043685168
213	0x3df8a85e	0.121414885
214	0x3d9d5f20	0.07684159
215	0x3d7dc414	0.061954573
216	0xbdf24b6a	-0.1183079
217	0x3d28b4d4	0.041188076
218	0xbdf9531e	-0.121740565
219	0xbdcfce2a	-0.101467445
220	0x3d54a8e8	0.051918894
221	0x3de2fb56	0.11083095
222	0x3cbbdee0	0.022933424
223	0xbda8aae0	-0.08235717
224	0xbce307d0	-0.027713686
225	0x3d3ede60	0.046598792
226	0xbd80aec0	-0.06283331
227	0xbd5424e0	-0.05179298
228	0x3d88b63a	0.06675382
229	0xbdc3ceae	-0.095609054
230	0x3df39630	0.1189388
231	0x3c127ec0	0.008941352
232	0x3d81123a	0.063023046
233	0x3bd10140	0.006378323
234	0x3c877838	0.016536817
235	0xbc2a5990	-0.01039733
236	0xbd7fa944	-0.062417284
237	0xbd751d5c	-0.059842452
238	0x3d377f24	0.044798985
239	0x3d4ea6a8	0.050451905
240	0x3d862ca0	0.0655148
241	0x3cc0a9c0	0.023518443
242	0xbda35444	-0.07975057
243	0x3dd64646	0.10462622
244	0x3dbd2e16	0.09237306
245	0xbdc9442a	-0.098274544
246	0x3d640550	0.05566913
247	0x3d1a3524	0.037648335
248	0x3c56f8c0	0.01312083
249	0x3dfd24ca	0.123605326
250	0xbd689a08	-0.05678752
251	0x3df8457c	0.12122628
252	0xbdc28d70	-0.09499633
253	0x3db39a2e	0.08769642
254	0x3d6bb1ac	0.057542488
255	0xbb272380	-0.0025503337

critic.2.bias f4 [64]
0	0xbdbc7bc6	-0.092032954
1	0x3d9063e8	0.070503056
2	0x3b03d040	0.002011314
3	0xbd8d3e2a	-0.068966225
4	0xbdbd580a	-0.09245308
5	0x3c8bf690	0.017085344
6	0x3cbf2af0	0.023335904
7	0x3c3b7580	0.011441588
8	0x3cb59540	0.022165895
9	0x3dd3bdc6	0.10338931
10	0x3dc4aa82	0.09602834
11	0x3ce69100	0.028145313
12	0x3d4b07ec	0.0495681
13	0xbd9c6878	-0.07637113
14	0xbd53d2d0	-0.05171472
15	0xbd4e23a4	-0.05032696
16	0x3aa36200	0.0012465119
17	0x3ccace60	0.02475661
18	0x3dd8ae26	0.10580091
19	0x3de6a488	0.112618506
20	0x3cf06038	0.029342756
21	0xbd42ca2c	-0.047556087
22	0xbd469b70	-0.04848808
23	0xbd535704	-0.051596656
24	0x3cfab840	0.030605435
25	0x3d9d07a8	0.07667476
26	0xbbddcb00	-0.0067685843
27	0x3d31ec64	0.04343833
28	0x3c62f620	0.013852626
29	0x3dc24540	0.09485865
30	0xbd486e6c	-0.04893343
31	0x3d748cbc	0.059704527
32	0x3d159524	0.036519185
33	0xbdc55902	-0.096361175
34	0xbdba01e4	-0.09082392
35	0x3b4e5780	0.003148526
36	0x3dca38e0	0.09874129
37	0x3ddea5ae	0.10871445
38	0xbd84cccc	-0.064843744
39	0x3b419bc0	0.0029542297
40	0x3dd90410	0.10596478
41	0xbd8beb20	-0.06831956
42	0x3d3d0c68	0.04615441
43	0xbd8bdd18	-0.0682928
44	0x3d51f3e4	0.051257983
45	0x3ddf1c3a	0.10894056
46	0x3dafa534	0.08576432
47	0xbdd64e92	-0.10464205
48	0xbdbbd300	-0.091711044
49	0x3d6dbef4	0.058043435
50	0x3db89686	0.09013085
51	0xbd943524	-0.07236698
52	0x3d6e1714	0.058127478
53	0xbdc2af90	-0.09506142
54	0xbdff1a50	-0.124561906
55	0x3dea1fb8	0.11431831
56	0x3d4fe8f8	0.050759286
57	0x3dfdde4a	0.12395914
58	0xbd8d03b4	-0.06885472
59	0x3cb76980	0.022389174
60	0xbda89242	-0.082310215
61	0x3dcbb822	0.0994723
62	0x3d5b2340	0.053500414
63	0x3d5d2368	0.053988844

critic.4.weight f4 [1, 64]
0	0x3df3125e	0.11868738
1	0x3dff1942	0.124559894
2	0xbde387ce	-0.11109887
3	0x3dd312d4	0.103063256
4	0x3ca08158	0.019592926
5	0x3ddd6f5e	0.10812257
6	0xbd23a67c	-0.039953694
7	0x3dd299dc	0.102832526
8	0x3d578f80	0.052627087
9	0xbd6b1914	-0.057396963
10	0xbdcb77c0	-0.0993495
11	0x3b4e0dc0	0.00314413
12	0xbd25bf28	-0.040465504
13	0x3da1aca8	0.0789426
14	0xbdc8aa7a	-0.09798141
15	0xbde1962c	-0.11014971
16	0x3cb7ce10	0.022437125
17	0xbdc61778	-0.09672445
18	0x3def2c9a	0.11678429
19	0xbd4d14b8	-0.050068587
20	0xbd8b1832	-0.06791724
21	0x3d8d44d4	0.068978935
22	0x3d28ed98	0.041242212
23	0xbd78d754	-0.060752228
24	0x3d917d76	0.07104008
25	0x3ce286a8	0.0276521
26	0x3dbc1954	0.091845185
27	0xbde89126	-0.1135581
28	0x3c8fa790	0.017535955
29	0x3dfc64fa	0.12323947
30	0xbab8f400	-0.0014110804
31	0x3c418a90	0.011812821
32	0xbdf6ba0c	-0.120472044
33	0x3cd6ed10	0.026236087
34	0xbde40cb8	-0.111352384
35	0xbd414970	-0.047189176
36	0x3d5263a8	0.05136457
37	0x3c855a48	0.016278401
38	0x3dc30400	0.09522247
39	0xbd0d9944	-0.034569994
40	0x3d340680	0.04395151
41	0x3c01a7f0	0.007913575
42	0xbcf7f6b0	-0.030268997
43	0x3de521ba	0.111880735
44	0xbda644d4	-0.08118597
45	0xbd89d786	-0.06730561
46	0x3dd414a8	0.10355502
47	0xbd4aaed0	-0.04948312
48	0xbd0ababc	-0.03386949
49	0x3d629368	0.05531636
50	0x3d019c88	0.03164342
51	0x3d0c49c8	0.03425005
52	0x3de7bdc6	0.11315493
53	0x3d15c15c	0.036561355
54	0x3ccca488	0.024980798
55	0x3d99bb10	0.075063825
56	0x3ddf80c6	0.109132335
57	0xbd9b7a0a	-0.075916365
58	0xbdba80e0	-0.09106612
59	0x3c20b900	0.009809732
60	0x3b2ed900	0.0026679635
61	0x3d02a1e4	0.031892672
62	0xbdf28e4a	-0.11843546
63	0x3d36c918	0.04462537
