saved_models/mlagents-learn/Dlivery_Bot_pos_neg-184757.onnx (onnx, 789087 bytes, 8 tensors)

network_body.observation_encoder.processors.0.normalizer.running_mean f4 [500]
0	0x3f0235bd	0.5086325
1	0x3edcce62	0.43126208
2	0x3d91c697	0.07117956
3	0x3d91c697	0.07117956
4	0x408c1f64	4.378832
5	0x3e02c731	0.12771298
6	0x3d6f40e8	0.05841151
7	0x3c7ef31c	0.0155608915
8	0x408fadf8	4.4899864
9	0x3dd35a7f	0.10319995
10	0x3d47262d	0.04862039
11	0x3c8597fe	0.016307827
12	0x4094aa5e	4.645797
13	0x3d9a1f5e	0.07525514
14	0x3d0f3173	0.034959268
15	0x3c8edc57	0.01743905
16	0x40985c8f	4.7612987
17	0x3d6701bc	0.05639814
18	0x3cc587d6	0.024112623
19	0x3cba88f3	0.02277038
20	0x409acbdd	4.8373857
21	0x3d379053	0.044815373
22	0x3c9dc223	0.01925761
23	0x3d002f23	0.031294953
24	0x409d5ec5	4.9178185
25	0x3d1eb08c	0.038742587
26	0x3c80d97d	0.015728706
27	0x3d150616	0.036382757
28	0x409f93a2	4.9867716
29	0x3d1135d5	0.03545173
30	0x3c59b45e	0.013287632
31	0x3d364726	0.044501446
32	0x40a0e6a1	5.028153
33	0x3d1ae061	0.03781164
34	0x3c4e43ff	0.012589454
35	0x3d4c7290	0.049913943
36	0x40a0d93d	5.0265183
37	0x3d39d33d	0.04536747
38	0x3c54bd2b	0.012984554
39	0x3d74439b	0.059634786
40	0x40a0d194	5.0255833
41	0x3d6ec9d2	0.05829794
42	0x3c8cff99	0.017211722
43	0x3d61d1aa	0.05513159
44	0x40a09ce6	5.0191526
45	0x3d9966f4	0.0749034
46	0x3cc26d44	0.023733743
47	0x3d382f3e	0.04496693
48	0x40a0e8e6	5.02843
49	0x3db50f06	0.08840756
50	0x3ceb15f8	0.028696999
51	0x3d110871	0.03540844
52	0x40a039ed	5.007071
53	0x3dc2a33d	0.095037915
54	0x3d30e9ac	0.043191597
55	0x3d199188	0.037492305
56	0x40a3a7ae	5.1142187
57	0x3da5d9c3	0.080981754
58	0x3d4af63f	0.049551245
59	0x3d093ab5	0.033503253
60	0x40a772f3	5.232782
61	0x3d6dfd74	0.05810304
62	0x3d6cf864	0.05785407
63	0x3ceaf3ed	0.028680766
64	0x40a9a106	5.300906
65	0x3d2d7a0d	0.042352725
66	0x3d661350	0.05617076
67	0x3ce84aea	0.028356034
68	0x40a9e477	5.309139
69	0x3d0c7d0d	0.034298945
70	0x3d4830e7	0.048874762
71	0x3cea10e5	0.028572509
72	0x40a8d7ff	5.2763667
73	0x3cf4710c	0.029839061
74	0x3d2a8185	0.041627426
75	0x3cfcffa6	0.030883621
76	0x40a6608f	5.199287
77	0x3d00df1b	0.03146277
78	0x3d084118	0.033265203
79	0x3d12409f	0.03570616
80	0x40a38947	5.1105075
81	0x3d20dcc5	0.039273042
82	0x3cddd40d	0.027078653
83	0x3d0023d7	0.03128418
84	0x409ec89e	4.9619894
85	0x3d557866	0.052116774
86	0x3ce971f9	0.02849673
87	0x3cd3c36d	0.025850022
88	0x4097ec73	4.7476134
89	0x3d9ee94c	0.077593416
90	0x3d096dd5	0.03355201
91	0x3cbda369	0.02314921
92	0x40915782	4.541932
93	0x3de23508	0.11045271
94	0x3d227554	0.039662674
95	0x3c92fbf0	0.017942399
96	0x408db763	4.428636
97	0x3e011501	0.12605669
98	0x3d4002ac	0.046877548
99	0x3c75fe46	0.015014237
100	0x3f042c58	0.51630163
101	0x3ee08d79	0.43857935
102	0x3d981dc0	0.07427549
103	0x3d981dc0	0.07427549
104	0x408dea57	4.434856
105	0x3e087c9f	0.13328789
106	0x3d7172cb	0.058947366
107	0x3c80ce1c	0.01572328
108	0x40919d45	4.550448
109	0x3ddba7db	0.10725375
110	0x3d4913e0	0.04909122
111	0x3c86ca72	0.016453955
112	0x4096de9c	4.714674
113	0x3d9e036d	0.07715497
114	0x3d10c460	0.035343528
115	0x3c9052df	0.017617641
116	0x409ac414	4.8364353
117	0x3d6a6bb7	0.05723163
118	0x3cc76fe8	0.024345353
119	0x3cbce25c	0.023057155
120	0x409d4969	4.915211
121	0x3d39e448	0.04538372
122	0x3c9f5ac8	0.019452468
123	0x3d021739	0.031760428
124	0x409ff6e5	4.9988885
125	0x3d207c3e	0.039180987
126	0x3c81b11e	0.015831526
127	0x3d1737e7	0.036918547
128	0x40a23b8f	5.0697703
129	0x3d129016	0.035781942
130	0x3c5b7a81	0.013395906
131	0x3d395c0f	0.04525381
132	0x40a3997a	5.112485
133	0x3d1bfc24	0.038082257
134	0x3c50bf96	0.01274099
135	0x3d4fd13c	0.05073665
136	0x40a38cc7	5.1109347
137	0x3d3b717e	0.04576253
138	0x3c577cf5	0.013152351
139	0x3d784c76	0.060619794
140	0x40a38ffa	5.1113253
141	0x3d71290f	0.058877047
142	0x3c8f150c	0.01746609
143	0x3d64b36f	0.055835184
144	0x40a359db	5.1047187
145	0x3d9ae05b	0.07562324
146	0x3cc50af5	0.024053076
147	0x3d3b9944	0.045800462
148	0x40a3a8df	5.114364
149	0x3db6e33e	0.08930062
150	0x3ceec422	0.029146258
151	0x3d1367be	0.035987608
152	0x40a2f450	5.0923233
153	0x3dc4bb83	0.096060775
154	0x3d335fb3	0.043792438
155	0x3d1bc366	0.038028143
156	0x40a66bf3	5.2006774
157	0x3da7a298	0.08185309
158	0x3d4dd815	0.0502549
159	0x3d0acdb2	0.033887573
160	0x40aa3de4	5.320055
161	0x3d70847c	0.058720097
162	0x3d705cbb	0.058682185
163	0x3cecc547	0.028902663
164	0x40ac6fb0	5.3886337
165	0x3d2f2957	0.042764034
166	0x3d690bc6	0.056895994
167	0x3ce9fa32	0.028561685
168	0x40acacbc	5.3960857
169	0x3d0dc088	0.03460744
170	0x3d4af0a9	0.049545918
171	0x3cec31bf	0.028832315
172	0x40ab91ac	5.361532
173	0x3cf6a88d	0.030109668
174	0x3d2cd56e	0.04219573
175	0x3cff9d5d	0.031202966
176	0x40a90c17	5.282726
177	0x3d021192	0.031755038
178	0x3d0a0161	0.03369272
179	0x3d13a62f	0.036047157
180	0x40a62119	5.1915402
181	0x3d22ae0f	0.039716776
182	0x3ce00b9e	0.02734929
183	0x3d0139f7	0.03154942
184	0x40a1421f	5.0393214
185	0x3d585492	0.052815028
186	0x3ceb92e6	0.02875657
187	0x3cd68e86	0.026191007
188	0x409a3d0a	4.819951
189	0x3da18153	0.07885995
190	0x3d0b0c31	0.033947174
191	0x3cbf8026	0.023376536
192	0x40937a5b	4.608686
193	0x3de701a6	0.11279611
194	0x3d248533	0.04016609
195	0x3c945077	0.018104775
196	0x408fa81a	4.48927
197	0x3e052680	0.13002968
198	0x3d4261ea	0.04745666
199	0x3c78a776	0.015176645
200	0x3f062367	0.5239777
201	0x3ee44ebe	0.44591326
202	0x3d9e77bc	0.07737681
203	0x3d9e77bc	0.07737681
204	0x408f91b5	4.4865365
205	0x3e0f1505	0.13972862
206	0x3d73dd69	0.059537325
207	0x3c823961	0.015896501
208	0x409375f6	4.6081495
209	0x3de4e684	0.1117678
210	0x3d4af0a4	0.0495459
211	0x3c88139d	0.016610915
212	0x40990ca2	4.782792
213	0x3da1cb29	0.07900078
214	0x3d1240a0	0.035706162
215	0x3c91a765	0.017780015
216	0x409d1ada	4.909528
217	0x3d6ea7b9	0.05826542
218	0x3cc935e8	0.024561837
219	0x3cbf74c0	0.0233711
220	0x409fc44c	4.992712
221	0x3d3c107a	0.04591415
222	0x3ca0f370	0.01964733
223	0x3d03bb42	0.032161005
224	0x40a28b5e	5.0795126
225	0x3d2203cf	0.039554413
226	0x3c82aacd	0.015950585
227	0x3d1958b8	0.037438124
228	0x40a4e46e	5.1528845
229	0x3d13e492	0.036106654
230	0x3c5d5728	0.013509549
231	0x3d3bdd5e	0.04586541
232	0x40a64b7b	5.196714
233	0x3d1d5bf5	0.038417775
234	0x3c5351f3	0.012897956
235	0x3d53193a	0.05153773
236	0x40a64daa	5.1969805
237	0x3d3cdcbb	0.046108942
238	0x3c5a25f4	0.013314713
239	0x3d7b781f	0.061393853
240	0x40a65889	5.1983075
241	0x3d7338e3	0.059380423
242	0x3c91414a	0.017731328
243	0x3d67bcf6	0.05657669
244	0x40a6223e	5.19168
245	0x3d9c541d	0.07633231
246	0x3cc79d52	0.024367008
247	0x3d3eb3d7	0.046558227
248	0x40a6713b	5.201322
249	0x3db8c2d4	0.090215355
250	0x3cf23979	0.02956842
251	0x3d1610d3	0.03663714
252	0x40a5babf	5.179046
253	0x3dc6aefb	0.097013436
254	0x3d363bd9	0.04449067
255	0x3d1e0644	0.038580194

network_body._body_endoder.seq_layers.0.weight f4 [256, 500]
0	0xbd646471	-0.05575985
1	0x3d0e5d85	0.034757156
2	0xbd0bfc9b	-0.03417645
3	0x3d1d8bff	0.03846359
4	0x3cf8161a	0.030283976
5	0xbcfad0f8	-0.030617222
6	0x3d6bafdb	0.057540756
7	0x3b4fb3ae	0.003169279
8	0x3d813e91	0.06310762
9	0x3d2abb15	0.04168232
10	0x3c7f7f18	0.015594266
11	0x3d17b667	0.037039187
12	0xbcfd086c	-0.030887805
13	0x3c823315	0.015893498
14	0xbd4e9ce6	-0.0504426
15	0xbc81b713	-0.015834367
16	0xbc8218fe	-0.015881058
17	0xbd318761	-0.043341998
18	0x3d24dc56	0.04024919
19	0xbc890a6c	-0.016728602
20	0x3b5dca12	0.0033842367
21	0xbd8438b8	-0.06456131
22	0xbca1e89a	-0.019764233
23	0x3d38a8d0	0.045082867
24	0xbd8ab77b	-0.06773277
25	0x3b32aed2	0.0027264846
26	0xbd5d6d24	-0.054059163
27	0x3d9dab05	0.07698635
28	0x3d24f78f	0.040275153
29	0xbc963ce5	-0.018339584
30	0xbbf04b49	-0.0073331934
31	0x3d415a3d	0.0472052
32	0xbd3e13d7	-0.04640564
33	0xbbac6e13	-0.0052621453
34	0xbd396ecf	-0.04527169
35	0xbdf9b9f5	-0.121936716
36	0xbd94ae23	-0.072597764
37	0xbd55d99c	-0.05220948
38	0x3d361ebb	0.0444629
39	0xba34c15d	-0.00068952685
40	0xbd10e362	-0.0353731
41	0xbcfa7bf2	-0.03057668
42	0xbcaaec85	-0.020864734
43	0x3c71b0a1	0.014751584
44	0xbd325770	-0.04354042
45	0xbd7addab	-0.061246555
46	0x3b229cdc	0.0024812734
47	0xbb1c40d6	-0.0023842356
48	0xbd869f78	-0.06573385
49	0xbe1b5bee	-0.15171787
50	0x3c6b4d97	0.014361761
51	0x3d440682	0.04785777
52	0x3c5ec30d	0.013596308
53	0x3d0b1171	0.03395218
54	0xbcd76108	-0.026291385
55	0x3d353584	0.04424049
56	0xbd930ae6	-0.07179813
57	0x3d4a23b4	0.049350455
58	0xba9eaeb9	-0.0012106515
59	0x3ca9ac18	0.020711944
60	0x3d8d1992	0.06889643
61	0xbdb1b755	-0.08677546
62	0xbdb921ec	-0.09039673
63	0x3d893cf6	0.067010805
64	0xbc012bb2	-0.007883953
65	0x3d779654	0.0604461
66	0xbd12f4c3	-0.035877954
67	0x3db9df59	0.09075803
68	0xbcfdead0	-0.030995756
69	0xbc9fd00f	-0.01950839
70	0xbb6f3fc3	-0.003650651
71	0x3b4b275b	0.00309988
72	0x3cd04a15	0.02542595
73	0xbc04ca91	-0.008104936
74	0xbc412611	-0.011788861
75	0x3d2956a9	0.04134241
76	0x3c8c2c83	0.017111069
77	0xbcffd294	-0.031228341
78	0xbdd85a7b	-0.10564133
79	0xbcb360b5	-0.0218967
80	0xbcb4ea9c	-0.022084527
81	0x3d325247	0.043535497
82	0x3ccd9db3	0.02509961
83	0x3d3990de	0.04530417
84	0xbd663c63	-0.056209933
85	0x3b3960de	0.0028286497
86	0xbd9f672b	-0.077833496
87	0x3d41f2ed	0.047350813
88	0x3c4d355d	0.01252493
89	0x3b2337b0	0.0024905019
90	0xbd3dc139	-0.04632685
91	0x3d1d3ca9	0.03838793
92	0x3db6173f	0.088911526
93	0x3d136f79	0.03599498
94	0x3cff9216	0.031197589
95	0x3dab6837	0.08369487
96	0x3cea4f09	0.02860214
97	0x3da90e85	0.082547225
98	0xbd258ffa	-0.04042051
99	0x3d72c50f	0.05926996
100	0xbd690b6a	-0.05689565
101	0x3c81f4bb	0.015863767
102	0x3d27a8ba	0.040932395
103	0x3d6c0750	0.05762416
104	0x3c8aa3fb	0.016923895
105	0x3d208f4a	0.03919915
106	0x3c211bf0	0.009833321
107	0xbcf32e0d	-0.029685045
108	0xbc33e379	-0.010979527
109	0xbd02985f	-0.031883594
110	0x3ca18cdb	0.019720485
111	0xbd3133bd	-0.043262232
112	0xbb1accc0	-0.0023620576
113	0x3db0f4c5	0.08640436
114	0xbc565f54	-0.013084251
115	0xbcc89fa5	-0.024490187
116	0xbacfa2a8	-0.0015841322
117	0xbcc649ab	-0.02420505
118	0xbc6684eb	-0.014069776
119	0x3cfcdfe8	0.030868486
120	0xbc30f8d6	-0.010801515
121	0x3bed653a	0.007244733
122	0x3cb1e1fa	0.0217142
123	0xbca99f1f	-0.020705758
124	0x3d8195bf	0.0632739
125	0xbcdc37a1	-0.026881995
126	0x3b03581d	0.0020041533
127	0x3dcec046	0.10095267
128	0x3c1292ed	0.008946163
129	0x3bc54560	0.006020233
130	0xbc8f6ac4	-0.017506965
131	0xbb67d3f6	-0.0035374141
132	0x3bf569eb	0.007489433
133	0x3cf1df5b	0.02952545
134	0xbbefc8c0	-0.0073176324
135	0xbd8c6906	-0.06855969
136	0x3c4aa7f2	0.012369143
137	0xbcfba945	-0.030720362
138	0xbcc8779b	-0.024471095
139	0xbca21d18	-0.019789264
140	0x3c86049a	0.016359616
141	0x3d060c3f	0.032726523
142	0x3d0b77c3	0.03404976
143	0xbd9681c5	-0.0734897
144	0xbd01c229	-0.031679306
145	0x3d5667ca	0.052345075
146	0xbdb434d4	-0.08799139
147	0xbd8bed30	-0.06832349
148	0xbdb549c7	-0.088519625
149	0xbd17cea3	-0.0370623
150	0x3d7f4c9f	0.06232893
151	0xbd3feaf7	-0.04685494
152	0xbcf83a8c	-0.030301355
153	0x3d5b65a2	0.05356372
154	0xbccb489c	-0.024814896
155	0xbdfb99ad	-0.12285171
156	0xbcf4da82	-0.029889349
157	0xbc52b1f9	-0.012859815
158	0x3d94a3a2	0.07257773
159	0xbda5302e	-0.0806583
160	0xbd0dd590	-0.034627497
161	0x3d121e53	0.03567345
162	0xbc8e2081	-0.017349483
163	0x3dd3ca98	0.10341376
164	0xbd15e46a	-0.036594786
165	0x3d58f5ca	0.052968778
166	0xbd02580f	-0.03182226
167	0xbbb1b9b6	-0.00542375
168	0x3d222cac	0.039593384
169	0xbd952d33	-0.07284012
170	0x3d1eaa7a	0.038736798
171	0x3d3b6bad	0.045756985
172	0xbdb3d27d	-0.08780382
173	0xbda1a64d	-0.078930475
174	0x3d894986	0.067034766
175	0xbc2a41cf	-0.010391667
176	0xbd7a029d	-0.06103765
177	0xbd1199ab	-0.03554694
178	0x3c43e622	0.011956723
179	0x3cc0837f	0.023500202
180	0xbb4f115d	-0.0031596043
181	0x3c9b6267	0.01896782
182	0xbb74e7cf	-0.0037369614
183	0x3d4245e8	0.04742995
184	0xbd2f93eb	-0.042865675
185	0x3d1afbdc	0.037837848
186	0xbd9e0b15	-0.077169575
187	0x3d8c57f7	0.068527155
188	0x39972a63	0.00028832545
189	0x3ac17a58	0.0014761193
190	0x3c2b97e0	0.010473222
191	0x3d2021fd	0.039094914
192	0x3e016560	0.12636328
193	0xbd3d225c	-0.046175346
194	0xbcaebfea	-0.021331746
195	0xbdcec72c	-0.10096583
196	0x3daec9f3	0.085346125
197	0xbb3a6c48	-0.0028445888
198	0x3cd19f8e	0.025588777
199	0xbd967fd2	-0.073485985
200	0x3cad004b	0.021118304
201	0x3cc5918f	0.02411726
202	0x3d018cc7	0.031628396
203	0x3aaf0fe5	0.0013356177
204	0xbcb85389	-0.02250077
205	0x3cba7ee6	0.022765588
206	0x3bdbca5f	0.006707474
207	0x3ca3f4c9	0.020014184
208	0x3c87d206	0.01657964
209	0x3d3ab3ac	0.045581505
210	0xbce3ae6c	-0.027793132
211	0x3d959a5f	0.073048346
212	0xbd39110c	-0.045182273
213	0x3c1ab123	0.009441647
214	0x3b730353	0.0037080839
215	0xbcf2dfa4	-0.029647656
216	0xbc12fb67	-0.008971072
217	0x3ce33909	0.027737157
218	0x3d4adf1d	0.049529184
219	0x3c61f442	0.013791146
220	0xbddd11af	-0.107943885
221	0xbd5fa922	-0.054604657
222	0x3c92a978	0.017903075
223	0x3cc9ffb7	0.024658067
224	0xbd023b8c	-0.03179507
225	0x3c9e815c	0.019348793
226	0xbd77f60a	-0.060537376
227	0xbd1b967f	-0.03798532
228	0x3d565b0e	0.05233293
229	0x3b7c2440	0.0038473755
230	0x3cc59ed4	0.024123587
231	0xbce6bc1a	-0.028165866
232	0xbc6e7fb0	-0.01455681
233	0xbc6703d8	-0.0141000375
234	0x3d91291f	0.07087921
235	0xbbc4aa0f	-0.006001718
236	0x3ce2cc68	0.02768536
237	0xbd98d09f	-0.07461666
238	0xbd365361	-0.04451311
239	0xbd15bcef	-0.036557134
240	0x3d202e19	0.039106462
241	0x3bb7f3a2	0.00561376
242	0xbc16c53c	-0.009202298
243	0xbc83649f	-0.01603919
244	0xbd2fbba9	-0.042903576
245	0x3d37aec1	0.044844393
246	0x3c0b413f	0.008499443
247	0xbb95d641	-0.00457266
248	0xbd5fbebf	-0.05462527
249	0x3d2a351b	0.04155455
250	0x3d86284e	0.06550656
251	0xbd95b64f	-0.07310163
252	0xbd956a01	-0.07295609
253	0xbd9952c0	-0.074864864
254	0x3b117bbf	0.0022199003
255	0x3ceaf66b	0.028681954

network_body._body_endoder.seq_layers.0.bias f4 [256]
0	0x3ca3d6ef	0.01999995
1	0x3c85c57c	0.01632952
2	0x3b3743d1	0.0027964006
3	0x3c150217	0.009094737
4	0x3c82fa89	0.015988605
5	0x3cbe04f2	0.023195717
6	0xb9004731	-0.00012233552
7	0xbca5ecf0	-0.020254582
8	0x3cc0de10	0.023543388
9	0x3c222040	0.009895384
10	0x3bd2b6e9	0.006430496
11	0x3ca407b9	0.020023214
12	0xbb19eb48	-0.0023486186
13	0x3c97194a	0.018444676
14	0x3cc0a475	0.02351592
15	0x3a50fc5d	0.00079721754
16	0x3cbefe54	0.023314632
17	0x3b2127e6	0.0024590432
18	0x3cd02ff5	0.025413493
19	0x3c23ae1d	0.009990242
20	0xbc334eee	-0.010944111
21	0x3c25ef4e	0.010127855
22	0x3d466990	0.048440516
23	0x3bdcfd2b	0.006744047
24	0x3cb57468	0.022150233
25	0x3cc1a6b4	0.02363906
26	0x3c87eb87	0.0165918
27	0x3c6e0560	0.014527649
28	0x3d100115	0.035157282
29	0x3cae5391	0.021280082
30	0x3cc9be00	0.024626732
31	0x3c94bf0d	0.018157506
32	0x3b09ed53	0.0021045997
33	0x3c3a2718	0.01136186
34	0x3c89466c	0.016757213
35	0x3b829634	0.0039851908
36	0x3cb3b3e0	0.021936357
37	0x3b943850	0.0045233145
38	0xbbc677a0	-0.006056741
39	0x3b95917c	0.004564462
40	0x3cfebc47	0.031095637
41	0xbaa7d286	-0.001280383
42	0x3c1667d0	0.009180024
43	0x3c8ddf67	0.01731844
44	0x3cc62c29	0.02419098
45	0x3c869bf9	0.016431795
46	0x3bee71f2	0.007276767
47	0xbbed2d3d	-0.007238059
48	0x3c0e71db	0.008694137
49	0xbc5a6287	-0.013329155
50	0x3cbfaf1f	0.023398934
51	0xbc361a3f	-0.011114656
52	0x3cd3a028	0.025833204
53	0x3cbcf4d2	0.023065958
54	0xbc1766fb	-0.009240861
55	0x3c371960	0.011175483
56	0x3bad76c1	0.0052936976
57	0x3c9cbefc	0.019134037
58	0x3b345bc3	0.0027520515
59	0x3b17a07b	0.0023136425
60	0x3c65a51d	0.014016417
61	0xbc6b2fb0	-0.014354631
62	0x3c87b2d7	0.01656477
63	0x3c8695ef	0.016428916
64	0x38fc8fd0	0.000120430836
65	0x3c30e6e8	0.01079724
66	0x3cbf7438	0.023370847
67	0xbb9f36ea	-0.004858841
68	0x3cb76423	0.022386616
69	0x3c7ae29e	0.015312819
70	0x3c7a92ca	0.015293786
71	0x3c6151b3	0.013752389
72	0xbc1d946b	-0.009617905
73	0x3c2009c5	0.009767954
74	0x3bb7acd5	0.00560532
75	0x3bd0bbbd	0.0063700364
76	0x3c54faf4	0.012999285
77	0x3bb12ff4	0.005407328
78	0x3c9b89e3	0.018986648
79	0x3cd3b471	0.025842877
80	0x3d03ad75	0.032147843
81	0xbcfe7c0a	-0.031065006
82	0x3b8cf39c	0.0043015014
83	0x3a70de0b	0.00091883604
84	0x3ccc9ca8	0.024977043
85	0x3c54f6d7	0.012998304
86	0x3c872a1a	0.016499568
87	0x3caf7104	0.021416195
88	0x3bf1875e	0.0073708734
89	0xbc242816	-0.010019323
90	0x3c297e0e	0.010344995
91	0xbbe780d4	-0.007064918
92	0xbb6a4f63	-0.0035752885
93	0x3a4f5c76	0.0007910201
94	0x3ab5d6d1	0.0013873224
95	0x3d18a7cd	0.037269402
96	0x3c706acd	0.014673901
97	0x3cfa9700	0.03058958
98	0x3b551d6e	0.0032518762
99	0x3bdeb31d	0.0067962543
100	0x3c63c1c3	0.013901177
101	0x3bd9e49c	0.006649567
102	0xbbe4994c	-0.006976282
103	0x3bc39830	0.00596907
104	0x3d09d40a	0.03364948
105	0xbc02ae9c	-0.0079762
106	0x3cb04436	0.0215169
107	0x3b99ec6a	0.004697372
108	0xbc86cfef	-0.016456572
109	0xbc1d307b	-0.009594078
110	0xbb0ae026	-0.0021190732
111	0x3b52a6a6	0.0032142787
112	0xbb611624	-0.0034345472
113	0x3cb53e3d	0.022124404
114	0x3bf04983	0.007332982
115	0x3cd20b29	0.025640087
116	0x3c54c694	0.012986798
117	0x3c258bff	0.010104178
118	0x3c2ec5e4	0.010667298
119	0x3c269d25	0.010169302
120	0x3ba74805	0.005105021
121	0x3bacd2a9	0.005274136
122	0x3c54a98a	0.012979874
123	0x3cd08df1	0.025458308
124	0x3ca382be	0.019959804
125	0x3c839687	0.016062988
126	0xbc4be069	-0.01244364
127	0x3c2ec22c	0.010666411
128	0xbba6687c	-0.0050783735
129	0x3c4e5436	0.01259332
130	0x3c8cfd72	0.017210696
131	0x3c149fda	0.009071315
132	0x3a69974b	0.0008910789
133	0x3ae3297d	0.001733109
134	0x3c3e00f7	0.01159691
135	0x3ce95092	0.028480802
136	0x3cc1b708	0.023646846
137	0x3c1639d2	0.009169059
138	0x3cd8d265	0.026467511
139	0x3c4e23fb	0.012581821
140	0x3be3bf17	0.00695027
141	0x3cf319ca	0.029675383
142	0x3ccd2871	0.025043698
143	0x3cf8483e	0.030307885
144	0x3c7a5ed1	0.015281395
145	0x3c6e2f9a	0.014537716
146	0x3c7fec66	0.015620327
147	0x3c8fae87	0.017539276
148	0xbc5982c9	-0.0132758105
149	0xbcda5920	-0.026653826
150	0x3a73302c	0.00092768925
151	0x3c202608	0.009774692
152	0x3c0e7844	0.008695666
153	0x3cbf155f	0.02332562
154	0xbcc81414	-0.024423636
155	0x3cba4277	0.022736771
156	0x3a1cf6d1	0.0005987706
157	0x3c4a3ddb	0.012343849
158	0x3cf44542	0.029818181
159	0x3c82b86c	0.01595708
160	0x3cd6a2ea	0.02620073
161	0x3ca04afb	0.019567003
162	0x3bbd42ca	0.005775784
163	0x3c325549	0.010884591
164	0x3c84a533	0.016192054
165	0x3cb86a62	0.022511665
166	0x3cc5d0e8	0.024147466
167	0x3ce8a6ef	0.028399913
168	0x3c60d075	0.013721575
169	0x3ba144ff	0.004921555
170	0x39f8e4ca	0.00047472707
171	0x3cd282d9	0.025697159
172	0x3c82d7b4	0.015971996
173	0x3cad0d1a	0.021124411
174	0x3c0a7fd9	0.008453333
175	0x3c848abd	0.016179437
176	0x3c0afbf9	0.0084829265
177	0x3c95999c	0.018261723
178	0x3d160043	0.036621343
179	0x3ce08f49	0.027412074
180	0x3cfc4420	0.030794203
181	0xbc789629	-0.01517252
182	0x3d12b70b	0.035819095
183	0x3c64c8f0	0.013963923
184	0x3d2f1375	0.042743165
185	0x3a5b3d00	0.0008363277
186	0x3c3e4db6	0.011615207
187	0x3cd1441c	0.025545172
188	0x3cf33b80	0.029691458
189	0xbb7bad0e	-0.003840271
190	0x3abb7952	0.0014303124
191	0x3ae3c674	0.0017377869
192	0xbc5840d0	-0.013199046
193	0x38954b7e	7.118935e-05
194	0x3c60e4ce	0.013726426
195	0x3c5c3318	0.013439916
196	0xbc8d88cd	-0.017277146
197	0x3cba18ce	0.022716906
198	0x3be2219d	0.0069009797
199	0x3cacc3a6	0.021089386
200	0xbbd032a3	-0.0063536926
201	0x3cde11a9	0.02710803
202	0x3c809055	0.015693823
203	0x3cea1558	0.02857463
204	0xbb64afc9	-0.0034894815
205	0x3be8665e	0.0070922812
206	0x3ce2c48d	0.027681613
207	0x3ba82cfd	0.005132316
208	0xb88e00e1	-6.771251e-05
209	0x3ce51c32	0.027967546
210	0x3c798d79	0.015231484
211	0x3c6633a1	0.014050395
212	0x3c94db9b	0.018171122
213	0x3c1aba18	0.009443782
214	0x3cae6151	0.021286638
215	0x3c225cd6	0.009909829
216	0x3bd8a53e	0.0066114953
217	0x3c893b2d	0.01675185
218	0x3c484667	0.0122238165
219	0x3cdb4ff1	0.026771517
220	0x3cd5a50e	0.02607968
221	0x3c781bdf	0.015143364
222	0xbb799374	-0.0038082274
223	0xbcab78ae	-0.020931568
224	0x3bcac2bb	0.0061877645
225	0x3c33585d	0.01094636
226	0x3bf4cffb	0.0074710823
227	0x3d007722	0.031363614
228	0x3cf8abfb	0.030355444
229	0x3aa531d5	0.0012603352
230	0x3ce18c98	0.02753286
231	0x3c88dfb8	0.01670824
232	0x3c6b32bd	0.014355359
233	0x3c29b8e6	0.010359025
234	0x3ca1039f	0.019655047
235	0x3c0ee712	0.008722084
236	0x3ccf990b	0.025341531
237	0x3c972670	0.018450946
238	0xbc16948f	-0.009190693
239	0x3cfaf12b	0.030632576
240	0x3cddc95c	0.027073555
241	0xbc87979c	-0.016551785
242	0x3c13d142	0.009022059
243	0x3b15cbf4	0.0022857161
244	0x3ab06dd5	0.0013460467
245	0x3b037cb6	0.0020063347
246	0x3cc26d15	0.023733655
247	0x3c47267b	0.012155171
248	0x3a1fd95e	0.0006097759
249	0xbba878f1	-0.0051413705
250	0x3b0589df	0.0020376367
251	0x3cc412ab	0.023934683
252	0x3c90ae48	0.017661229
253	0x3c87578c	0.016521238
254	0x3c9bf642	0.019038323
255	0xbbc14c34	-0.0058989767

network_body._body_endoder.seq_layers.2.weight f4 [256, 256]
0	0x3c14a1f8	0.0090718195
1	0x3dbfd48d	0.09366713
2	0x3dfd2f1d	0.12362502
3	0xbd8450a2	-0.06460692
4	0xbd16d8ad	-0.036827732
5	0x3d59e162	0.053193457
6	0x3da6188a	0.08110149
7	0xbde7e728	-0.113233864
8	0x3dac6645	0.08417944
9	0x3d83d093	0.06436267
10	0x3daea159	0.085268684
11	0x3dca1d63	0.09868886
12	0xbd0afa50	-0.033930123
13	0x3d6f0114	0.058350638
14	0xbbfa8e0e	-0.007646329
15	0xbdab9859	-0.083786674
16	0x3d4f775c	0.05065094
17	0xbd3be616	-0.045873724
18	0x3d2a1606	0.04152491
19	0xbc6d5410	-0.014485374
20	0xbddd992c	-0.10820231
21	0xbd584e7f	-0.052809235
22	0xbaefab8f	-0.0018285381
23	0x3d80374b	0.06260546
24	0x3c22d176	0.009937635
25	0xbb3f5363	-0.002919399
26	0xbd0e40f8	-0.034729928
27	0xbce6f6de	-0.028193887
28	0x3d81f4db	0.063455306
29	0xbd3659b1	-0.04451913
30	0x3d4853c5	0.048908014
31	0x3ddd5b27	0.108084016
32	0x3ccc8db2	0.02496991
33	0x3db720c0	0.089417934
34	0xbdc3fbec	-0.09569535
35	0xbd9af2f5	-0.075658716
36	0x3da519fd	0.080615975
37	0xbd1fb8f4	-0.038994744
38	0xbd6ef1b2	-0.058335967
39	0x3ca05d19	0.019575642
40	0x3d221d92	0.03957898
41	0xbb8dcfa3	-0.0043277307
42	0xbcf2462a	-0.029574472
43	0xbd279fa9	-0.04092375
44	0x3dedfda7	0.11620646
45	0xbc5141ca	-0.012772033
46	0xbd1140a5	-0.03546204
47	0xbd24b7ff	-0.040214535
48	0xbd2b193f	-0.041772123
49	0xba8d1651	-0.0010764097
50	0x3d4961e8	0.049165636
51	0x3d48dfc8	0.04904154
52	0x3d539250	0.051653206
53	0xbd80e447	-0.062935404
54	0xbd89bec3	-0.06725838
55	0x3cd0bfb7	0.025482042
56	0xbd926701	-0.07148553
57	0xbd78df35	-0.06075974
58	0x3d59c8ef	0.05317014
59	0x3d916877	0.07100003
60	0xbde02ae3	-0.1094568
61	0x3db171bf	0.086642735
62	0xbdb4479b	-0.0880272
63	0xbd182bc1	-0.037151102
64	0xbd492b19	-0.049113367
65	0x3d6b0dda	0.057386257
66	0x3c718c59	0.014742934
67	0x3cd4db4c	0.025983475
68	0xbdb808a4	-0.08986023
69	0x3e1ea901	0.15494157
70	0xbcacfe93	-0.021117484
71	0x3d089fa1	0.03335536
72	0xbc08b18f	-0.0083431145
73	0x3d6f8f9c	0.058486566
74	0x3c08bb71	0.008345471
75	0xbc970b64	-0.018438049
76	0x3c824384	0.015901335
77	0xbc105542	-0.00880939
78	0xbd9efc23	-0.07762935
79	0xbdc7d146	-0.097567126
80	0xbd3de678	-0.04636237
81	0x3b80354a	0.0039126026
82	0x3c9207ed	0.017826045
83	0x3dbf902a	0.09353669
84	0x3d9610c2	0.07327415
85	0x3d7d7319	0.061877344
86	0xbd2b49cc	-0.041818425
87	0xbddea4dd	-0.10871289
88	0x3db57b37	0.08861392
89	0xbdb302e4	-0.08740786
90	0xbdddec1c	-0.1083605
91	0x3d8f124d	0.069859125
92	0x3cf8151b	0.030283501
93	0xbd3768d3	-0.044777703
94	0x3de11f7e	0.10992335
95	0x3d9ddb97	0.07707899
96	0x3d64a6c8	0.055823117
97	0x3db86704	0.09004024
98	0xbcee31fd	-0.02907657
99	0xbcc6ba64	-0.0242588
100	0x3dce5ef6	0.10076706
101	0x3d6c3af9	0.05767343
102	0xbc88aeee	-0.016684975
103	0x3d87e87f	0.06636142
104	0xbdb6f283	-0.08932974
105	0xbd914e17	-0.070949726
106	0x3db45819	0.08805866
107	0x3ce2ee0a	0.027701396
108	0x3b9ecac8	0.0048459508
109	0xbd693a10	-0.05694014
110	0x3c883775	0.016628006
111	0xbcc36dc8	-0.023856059
112	0xbd236194	-0.03988798
113	0x3db1dc72	0.08684625
114	0x3c68ee9c	0.014217045
115	0xbb9a5041	-0.004709274
116	0xbb055071	-0.0020342136
117	0x3d8ae91a	0.06782742
118	0xbd81ebd8	-0.06343812
119	0x3da31e6e	0.079647884
120	0xbd9105ea	-0.07081206
121	0xbd171c91	-0.036892477
122	0x3d4ce537	0.050023284
123	0xbd39d2f9	-0.045367215
124	0xbc92ace7	-0.017904712
125	0xbc51386a	-0.012769798
126	0x3c584f7b	0.013202543
127	0xbe117a6e	-0.1420686
128	0xbc6dba31	-0.0145097235
129	0xbdef06dd	-0.11671231
130	0x3d0bcec1	0.034132723
131	0x3cdecdb4	0.027197696
132	0xbda4be55	-0.080441155
133	0xbdb4ee7c	-0.0883455
134	0xbd38912a	-0.045060314
135	0xbd45487f	-0.04816484
136	0x3ba1a2ed	0.0049327523
137	0x3d978f30	0.07400358
138	0x3d8bd333	0.068273924
139	0xbdc93fb3	-0.09826603
140	0x3c56ee61	0.013118357
141	0x3d94f33e	0.07272957
142	0x3d953f73	0.072874926
143	0x3aef2ef0	0.0018248241
144	0x3d083c1b	0.033260446
145	0x3e100b97	0.14066921
146	0x3cca482f	0.024692623
147	0x3ccbb88a	0.024868269
148	0x3d680e05	0.056653995
149	0x3d8c2391	0.06842721
150	0xbdcdf038	-0.10055584
151	0xbe245cbe	-0.16051003
152	0xbcf56c5b	-0.029958894
153	0x3daf2fd0	0.085540414
154	0x3c8da437	0.017290218
155	0x3d4c1576	0.049825154
156	0xbd1d93e8	-0.038471133
157	0xbce9d419	-0.028543519
158	0x3cee7a48	0.029111043
159	0xbc92653e	-0.017870542
160	0x3c7a0adf	0.015261381
161	0x3d1df42e	0.038562946
162	0xbb1359c2	-0.002248392
163	0xbd6c16d3	-0.057638954
164	0x3d5ebe82	0.0543809
165	0xbe31bf15	-0.17358048
166	0x3d0ea508	0.034825355
167	0x3ceae52d	0.028673733
168	0xbd3279e9	-0.043573294
169	0x3c9732ab	0.018456778
170	0x3ccebbd1	0.025236042
171	0x3debcda7	0.115138344
172	0xbda16494	-0.07880512
173	0x3d92e3be	0.071723446
174	0x3ca26f70	0.019828528
175	0xbcba7236	-0.022759538
176	0x3c2ddf93	0.010612386
177	0x3e153b27	0.14573346
178	0xbce11662	-0.027476493
179	0x3db9cc5a	0.0907218
180	0x3d24cda2	0.04023517
181	0x3df1ac54	0.11800447
182	0xbd98048e	-0.07422744
183	0x3cdb994d	0.026806498
184	0x3e4dea28	0.20108855
185	0x3e0ca3e8	0.137344
186	0x3d48ca48	0.049021035
187	0xbd55a422	-0.052158482
188	0x3dbf5848	0.0934301
189	0xbd907406	-0.0705338
190	0x3d4154d1	0.047200028
191	0x3c806f94	0.015678205
192	0xbd23dac5	-0.040003557
193	0xbde64069	-0.11242754
194	0xbd836fb2	-0.064177886
195	0x3db36e47	0.08761268
196	0xbc28cacf	-0.01030226
197	0x3d66e64e	0.05637198
198	0x3d0823fd	0.033237446
199	0xbdf20a89	-0.11818416
200	0x3d38b47f	0.04509401
201	0x3d48aa30	0.04899043
202	0x3d735451	0.059406582
203	0x3db585e5	0.08863429
204	0x3d849533	0.0647377
205	0x3d217e4e	0.039427094
206	0xbe056f17	-0.13030659
207	0xbcd185f1	-0.025576564
208	0x3d8e2e32	0.06942405
209	0x3cf9c818	0.03049092
210	0x3c86b190	0.01644209
211	0x3e1e39d9	0.15451755
212	0x3bd58206	0.006515744
213	0x3da6dfef	0.08148181
214	0x3d7b51fb	0.06135748
215	0x3dc115ff	0.094280235
216	0xbd5f025b	-0.054445606
217	0x3d8eaaed	0.06966195
218	0x3cff6424	0.03117568
219	0x3b48edef	0.0030659398
220	0xbaedd7ca	-0.0018145975
221	0x3df81d2e	0.121149406
222	0xbc12d2f1	-0.008961425
223	0x3d5f72f2	0.05455298
224	0x3ca14b0a	0.019689102
225	0xbdb6f273	-0.08932962
226	0x3d6a7cec	0.05724804
227	0x3d24e8e8	0.04026118
228	0xbda170c7	-0.07882839
229	0x3ce9bffb	0.028533926
230	0xbd108d95	-0.035291273
231	0x3c39a789	0.011331447
232	0x3d16b430	0.036792934
233	0x3d24099f	0.040048238
234	0xbd045984	-0.03231193
235	0x3df0688f	0.11738693
236	0x3c4a7f89	0.012359508
237	0xbdd0acf2	-0.10189237
238	0x3b74ede7	0.0037373246
239	0xbcb633ba	-0.022241462
240	0x3dd39e35	0.1033291
241	0x3c9a941f	0.018869458
242	0x3cb98489	0.022646205
243	0xbc67ff51	-0.014159993
244	0xbc55f339	-0.013058477
245	0x3d8fef5a	0.070280746
246	0x3e048bf1	0.12944008
247	0xbd07eaf5	-0.033183057
248	0xbd5e02ff	-0.054202076
249	0x3ddf9080	0.10916233
250	0xbc2fb369	-0.010723927
251	0xbd069a4a	-0.032861985
252	0xbdaeb40c	-0.08530435
253	0x3c87f05c	0.016594104
254	0x3b604018	0.003421789
255	0xbbb27586	-0.005446139

network_body._body_endoder.seq_layers.2.bias f4 [256]
0	0x3ce9102c	0.028450094
1	0x3c4df414	0.0125704
2	0x3d101502	0.035176285
3	0x3c27c970	0.010240898
4	0x3c204cca	0.009783933
5	0x3c8874d2	0.016657267
6	0x3c0ef3eb	0.008725147
7	0x3c64d57c	0.013966914
8	0x3c181580	0.00928247
9	0x3cad5268	0.021157458
10	0x3c4fe017	0.0126877045
11	0x3bb2f283	0.0054610386
12	0x3c97afde	0.018516477
13	0x3cd00000	0.025390625
14	0x3c673ffa	0.014114374
15	0x3c1c7571	0.009549485
16	0x3cd1be27	0.025603367
17	0x3cfcf7b2	0.03087983
18	0x3cd3bab1	0.025845857
19	0x3c8cbe50	0.017180592
20	0x3c4bad92	0.012431519
21	0x3cb4196f	0.021984784
22	0xb9b5f3a8	-0.00034704548
23	0xb946a270	-0.00018943264
24	0x3cf9a871	0.030475827
25	0x3b9d504b	0.0048008314
26	0x3b82a552	0.003986993
27	0x3ce7c9ab	0.028294405
28	0x3bf2b57d	0.007406889
29	0x3c0235fe	0.007947443
30	0x3c679f74	0.014137138
31	0x3c850b3b	0.016240707
32	0x3b487fea	0.003059382
33	0x3d0b6440	0.034031153
34	0x3c31ec00	0.010859489
35	0x3c86caa4	0.016454048
36	0x3c096927	0.008386887
37	0x3bfbe3bc	0.00768706
38	0x3cb76167	0.022385312
39	0x3c917055	0.01775376
40	0x3c8b7940	0.01702559
41	0xbc2ca105	-0.010536437
42	0x3ac8e509	0.0015327047
43	0x3cebf042	0.028801087
44	0x3c9c985c	0.01911562
45	0x3c335563	0.010945651
46	0x3cb05b73	0.021527981
47	0x3ca179d5	0.019711414
48	0x3bc70034	0.0060730223
49	0x3ce74ee2	0.028235856
50	0x3c8f0c96	0.017462056
51	0x3c23c313	0.00999524
52	0x3c27060f	0.010194316
53	0xbc48e340	-0.012261212
54	0x3c699a97	0.0142580485
55	0x3a8a053e	0.0010530127
56	0x3b84b0fe	0.0040494194
57	0x3b2b6dfe	0.002615809
58	0x3ca7088f	0.020389823
59	0x3c32424d	0.010880065
60	0x3cd35c20	0.025800765
61	0x3bcbad6b	0.0062157414
62	0x3cd4c1e1	0.025971355
63	0xbb16c78c	-0.0023007123
64	0x3ccdecb9	0.025137292
65	0x3cac06ee	0.020999398
66	0x3cb94cf9	0.022619711
67	0x39251a40	0.00015745405
68	0x3c83fa0d	0.016110444
69	0x3c8b564a	0.01700892
70	0x3c9b4278	0.018952593
71	0x3b8cb7f4	0.00429439
72	0x3c67a90c	0.014139425
73	0xba8577ee	-0.0010182837
74	0x3cdc1ad5	0.026868263
75	0x3cc8983c	0.024486654
76	0x3b2aebcc	0.0026080487
77	0x3cc789e6	0.024357747
78	0x3cad1d21	0.021132054
79	0x3c7da5b9	0.015481406
80	0x3bd7415e	0.0065690717
81	0x3ce60d23	0.028082436
82	0xbbf0b9c4	-0.0073463637
83	0x3d2dd404	0.042438522
84	0x3c23e782	0.010003926
85	0x3c67d525	0.014149939
86	0x3babf735	0.0052479752
87	0x3c41bf3d	0.01182538
88	0x3b911155	0.004427115
89	0x3b430bc1	0.0029761645
90	0xbbccb7aa	-0.0062474804
91	0x3c58adad	0.013225001
92	0x3c9c9c5a	0.019117523
93	0x3c09452c	0.008378308
94	0x3c2a394a	0.010389635
95	0x3c928d67	0.017889692
96	0x3bcf2941	0.0063220565
97	0x3c324796	0.010881325
98	0x3cb2d13f	0.021828292
99	0x3c62ab15	0.013834734
100	0x3c02b78e	0.007978333
101	0x3cf532d0	0.029931456
102	0x3bb05306	0.005380991
103	0x3c42c246	0.011887139
104	0x3cb34288	0.02188231
105	0x3bde7be7	0.0067896727
106	0x3cfbed1b	0.03075271
107	0x3aaa0f58	0.0012974543
108	0x3ca1c5d6	0.019747656
109	0x3b1e0d2d	0.002411674
110	0x3caf0f95	0.021369735
111	0x3c84da64	0.016217418
112	0x3c042026	0.008064305
113	0x3cfe35b2	0.031031463
114	0x3c6c525a	0.014423931
115	0x3c929b1d	0.01789623
116	0x3c377f27	0.011199749
117	0x3d1cc904	0.03827764
118	0x3c9019bf	0.017590402
119	0x3b254dc6	0.0025223359
120	0x3c715e38	0.014731936
121	0x3bb2ebda	0.0054602446
122	0x3cf3e124	0.029770441
123	0x3c395ecc	0.011314105
124	0x3c49ab39	0.012308889
125	0x3ca1cf5a	0.019752193
126	0x3c3129f2	0.010813223
127	0x3c03b6d6	0.008039197
128	0x3cbf1ab8	0.02332817
129	0x3c070a3f	0.008242189
130	0x3c59413e	0.013260184
131	0x3cbd70ce	0.023125079
132	0x3cc45283	0.023965126
133	0xbbc24713	-0.005928883
134	0x3d064ff8	0.032791108
135	0x3c5b5f55	0.013389428
136	0x3b4fb41a	0.0031693042
137	0x3c6e3d24	0.014540944
138	0x3c73b035	0.014873554
139	0x3c964185	0.018341789
140	0x3c4c74d3	0.012479025
141	0x3b07d8c8	0.0020728577
142	0x3bddc754	0.0067681465
143	0x3c98f4d4	0.01867143
144	0x3c4b82fc	0.012421366
145	0x3c08b6a6	0.008344328
146	0xbb16e9aa	-0.0023027458
147	0x3bf2cda2	0.0074097672
148	0xba1be779	-0.0005947273
149	0x3be71dd0	0.0070531145
150	0x3c6763f1	0.014122949
151	0x3c4b5525	0.012410437
152	0xbb35223c	-0.0027638813
153	0xbbb1c829	-0.0054254723
154	0x3ce08e70	0.02741167
155	0x3c801fb3	0.015640115
156	0x3ce96659	0.028491186
157	0x3c46b028	0.01212696
158	0x3c05e3b9	0.008171969
159	0x3ca7bd6a	0.020476062
160	0x3c36f05f	0.011165707
161	0x3c089432	0.008336114
162	0x3ce18114	0.02752737
163	0x3c7ae968	0.015314437
164	0x3c76ba2b	0.015059034
165	0x3ca9aeaf	0.020713178
166	0x3cc75378	0.024331793
167	0x3c4f4de7	0.012652851
168	0x3c19b490	0.009381428
169	0x3c35f415	0.011105557
170	0xb9c7a150	-0.00038076425
171	0x3cfbe733	0.030749893
172	0x3cc78c30	0.024358839
173	0x3c3ca66d	0.011514288
174	0x3b1157ca	0.002217757
175	0x3bfc87d8	0.0077066235
176	0x3ba019df	0.0048858966
177	0x3c9620f7	0.018326266
178	0x3bc2c9ef	0.0059444825
179	0x3bb32562	0.005467103
180	0xbc04342e	-0.008069081
181	0x3c9c6879	0.019092785
182	0x3bfa83a4	0.0076450873
183	0xbb76eaa2	-0.0037676473
184	0xba7fec6d	-0.0009762708
185	0x3c813c2c	0.015775762
186	0x3ca5dca8	0.020246819
187	0x3bf34497	0.007423948
188	0x3c9db6d8	0.019252226
189	0x3bcc3fd9	0.006233197
190	0x3cdf454e	0.027254727
191	0x3c7f0885	0.015565996
192	0xbb105c9b	-0.0022027853
193	0x3c57d249	0.0131726945
194	0x3cb14933	0.02164135
195	0x3b1fba42	0.0024372493
196	0x3c15ffeb	0.009155254
197	0x3b529303	0.0032131083
198	0x3c6d2f11	0.014476554
199	0x3bb36036	0.0054741157
200	0x3c4ab657	0.012372575
201	0x3c075c07	0.008261687
202	0x3c085492	0.008320944
203	0x3c401620	0.011724025
204	0x3c726db6	0.014796665
205	0xbaa510ff	-0.0012593566
206	0x3b8515a8	0.0040614195
207	0x3c41b2f1	0.011822448
208	0x3beb3399	0.007177782
209	0x3c2d2855	0.010568698
210	0x3c45b8f6	0.012068024
211	0x3b67d374	0.0035373839
212	0xbb8045e2	-0.0039145807
213	0x3c4122d3	0.011788088
214	0x3d1bf6ea	0.038077272
215	0x3c11b0c8	0.008892246
216	0x3c7179cc	0.014738511
217	0x3b34a2aa	0.0027562776
218	0x3c5feff2	0.013668047
219	0x3c23efa0	0.0100058615
220	0x3c61e2bd	0.013786969
221	0x3cd78806	0.026309978
222	0x3c96a081	0.018387081
223	0x3cb12773	0.021625256
224	0x3c328572	0.010896074
225	0x3bc5fa1c	0.0060417783
226	0x3c0b90ba	0.008518392
227	0x3b95f9e6	0.0045769094
228	0x3c6041e1	0.013687582
229	0xb7fdcf51	-3.025649e-05
230	0x3bd6734b	0.0065445057
231	0x3c9dc4f2	0.01925895
232	0xbc529b3c	-0.012854394
233	0x3ba5d100	0.005060315
234	0x3cb1b047	0.0216905
235	0xbaa190c0	-0.0012326464
236	0x3c33f794	0.01098432
237	0x3c28c673	0.01030122
238	0x3c4db722	0.012555869
239	0x3ccb9b14	0.02485422
240	0x3ca26dff	0.01982784
241	0x3c36191e	0.011114387
242	0x3c989f5c	0.018630676
243	0x3cae0159	0.021240877
244	0x3c0f870f	0.008760228
245	0x3cb780ca	0.022400279
246	0x3b6257bd	0.003453716
247	0x3cc06529	0.023485737
248	0x3c63bcae	0.013899965
249	0x3c5e6ecb	0.01357622
250	0x3cd8a6ed	0.026446784
251	0x3c963ce4	0.018339582
252	0x3bd17158	0.0063916855
253	0x3c638f49	0.013889142
254	0x3ca3ea24	0.020009108
255	0x3bec4d3e	0.0072113564

action_model._discrete_distribution.branches.0.weight f4 [3, 256]
0	0xbccdfead	-0.025145853
1	0x3ce53fca	0.027984519
2	0x3d518f5d	0.051162113
3	0xbd061c97	-0.03274211
4	0xbcc47612	-0.023982082
5	0xbcbe183d	-0.023204917
6	0x3c1876ea	0.009305695
7	0xbc3554be	-0.011067567
8	0x3c067fae	0.008209152
9	0x3d9365c0	0.07197142
10	0x3c8e8651	0.017398031
11	0xbcb75234	-0.022378065
12	0xbcb09b40	-0.021558404
13	0x3d848979	0.06471533
14	0x3d12429d	0.03570806
15	0xbc9ad647	-0.018901004
16	0xbcb7bb12	-0.02242807
17	0xb9cca694	-0.00039034022
18	0xbc81fa7c	-0.01586651
19	0x3cb211a7	0.021736933
20	0xbd243392	-0.040088244
21	0xbd1deaab	-0.038553875
22	0x3a8e59a6	0.0010860458
23	0xbc508a28	-0.0127282515
24	0xba949544	-0.0011335989
25	0x3c90f538	0.017695054
26	0x3d22607c	0.039642796
27	0xbcd69578	-0.02619432
28	0xbcc0868a	-0.023501653
29	0x3c8c6d4c	0.01714196
30	0xbc894789	-0.016757743
31	0x3c9c0d95	0.019049445
32	0x3ba11f9e	0.004917099
33	0xbc7eb96c	-0.015547138
34	0x3b4adf16	0.0030955723
35	0x3d4cfd3e	0.050046198
36	0x3c0c94c7	0.008580393
37	0x3c0dc097	0.008651874
38	0x3d3283d1	0.04358274
39	0x3d18ccf2	0.037304826
40	0xbbb19eb9	-0.0054205325
41	0x3bf4b6e4	0.0074680913
42	0x3ca0df74	0.0196378
43	0x3b473a01	0.0030399563
44	0xbd52ecee	-0.051495485
45	0xbc838b67	-0.016057683
46	0x3c3bdc28	0.011466064
47	0xbc1f37d9	-0.009717905
48	0xbcf03a52	-0.029324684
49	0xbcddfbbf	-0.027097581
50	0xbcba0dbd	-0.022711629
51	0xbd23e0b9	-0.040009234
52	0x3d3e1447	0.046406057
53	0x3c16dbfe	0.009207724
54	0x3d3b3885	0.045708198
55	0xbc6745df	-0.01411578
56	0xbbc90780	-0.0061349273
57	0xbcbdbf96	-0.023162644
58	0xbd3c1feb	-0.045928877
59	0xbd04f18c	-0.03245692
60	0xbba32e02	-0.00497985
61	0xbb9be405	-0.0047574067
62	0xbccc3e16	-0.024931949
63	0xbc1e292a	-0.009653369
64	0xbd3a9b33	-0.045558166
65	0xbc997e41	-0.01873696
66	0x3cf5fae5	0.030026862
67	0xbb232d7b	-0.0024898935
68	0xbbf73924	-0.0075446535
69	0x3ca13dcf	0.019682793
70	0x3d012e63	0.03153838
71	0x3bab78d4	0.0052329097
72	0xbcdcf9af	-0.026974527
73	0x3c2aae19	0.010417485
74	0xbd3d06c6	-0.046149038
75	0x3ce72a2c	0.028218351
76	0x3cb5beec	0.022185765
77	0x3d8212b2	0.06351222
78	0xbcc5c0d1	-0.024139794
79	0xbd194fc6	-0.037429594
80	0x3c617084	0.013759736
81	0x3d14f674	0.03636785
82	0xbc5b090d	-0.013368857
83	0x3ccffadd	0.025388176
84	0x3bb5f3cb	0.005552744
85	0xbd2a956b	-0.041646402
86	0x3c3b86bc	0.011445697
87	0x3d1c0496	0.03809031
88	0x3cf0b76d	0.02938434
89	0x3ce14a6b	0.027501306
90	0x3b7176fb	0.00368446
91	0xbcf46908	-0.029835239
92	0xbd022850	-0.031776726
93	0xbc93083a	-0.017948259
94	0x3b9b832d	0.004745862
95	0xbc7b4377	-0.015335909
96	0xbba23a8a	-0.004950826
97	0xbccbfc3f	-0.024900554
98	0xbae7dac2	-0.0017689096
99	0x3d620b37	0.055186477
100	0x3c6caa65	0.014444922
101	0xbc635b36	-0.013876727
102	0x3ca72447	0.02040304
103	0xbbb958c1	-0.0056563322
104	0x3c6ca582	0.014443757
105	0xbccf55b0	-0.025309414
106	0x39fb7819	0.0004796393
107	0xbc2d8408	-0.010590561
108	0xbc2d07ec	-0.010560971
109	0x3a1d3123	0.00059963966
110	0xbc8d2b8a	-0.017232675
111	0xbc49a9f0	-0.012308583
112	0xbb82c259	-0.003990453
113	0x3d59d40d	0.053180743
114	0x3d31b08e	0.043381266
115	0x3d1968af	0.03745335
116	0xb82f4c3a	-4.1794243e-05
117	0xbceb8d94	-0.028754033
118	0xbcbd9ebc	-0.02314698
119	0xbbd84765	-0.0066003078
120	0xbcd6db13	-0.02622751
121	0x3d036428	0.03207794
122	0x3cf2182d	0.029552544
123	0xbbfa5442	-0.007639439
124	0x3d039aec	0.032130167
125	0xbc7324fd	-0.014840362
126	0x3d005505	0.03133108
127	0xbca46b5d	-0.020070726
128	0xbcbebfc9	-0.02328481
129	0xbcb54b5b	-0.022130659
130	0xbbd95509	-0.0066324514
131	0x3d5ff2bd	0.054674853
132	0xbcd6a4e8	-0.02620168
133	0x38ef385c	0.00011406906
134	0x3d24bb71	0.04021782
135	0xbceca5d5	-0.028887669
136	0xbbbf28ef	-0.005833737
137	0x3ca4d7cd	0.020122433
138	0xbd0e1306	-0.03468611
139	0xbcf22d8b	-0.029562732
140	0xbd280047	-0.04101589
141	0x3bdefe2c	0.006805202
142	0x3cc765bf	0.024340509
143	0x3cff57bb	0.031169763
144	0xbcedc1ef	-0.029023139
145	0xbc55789c	-0.013029244
146	0xbc379526	-0.011204993
147	0xbcc85668	-0.024455264
148	0x3ba0e31d	0.0049098865
149	0xbbed722a	-0.0072462754
150	0xbc8c29a0	-0.017109692
151	0x3d178e2e	0.037000827
152	0xbbea0789	-0.0071420115
153	0x3caf0d10	0.021368533
154	0x3b91fc93	0.004455158
155	0x3cd200c3	0.025635129
156	0x3cc9eece	0.024650004
157	0xbc7fbd9e	-0.015609173
158	0xbc311298	-0.010807656
159	0xbd0fca18	-0.03510484
160	0xbcfd9491	-0.030954631
161	0x3bab1585	0.005221071
162	0xbb1f7b59	-0.0024334996
163	0xbd1c17a1	-0.03810847
164	0xbcefb086	-0.029258978
165	0xbd31e7fd	-0.043434132
166	0xbd4314ca	-0.047627248
167	0xbcc7c62a	-0.024386484
168	0xbc7d06e9	-0.015443542
169	0xbcf271ae	-0.029595222
170	0xbc263b77	-0.010146013
171	0x3d2c3998	0.042047113
172	0x3d1066d4	0.035254315
173	0xbd10c41d	-0.03534328
174	0xbba7cfcc	-0.005121207
175	0xbcd20821	-0.025638642
176	0xbc0e1aa3	-0.008673343
177	0x3bd9ce78	0.0066469274
178	0xbb8b6db7	-0.0042550224
179	0xbc99c9ba	-0.018772949
180	0x3bbec406	0.0058217077
181	0xbcd7f77a	-0.026363123
182	0x3ccd23d1	0.025041493
183	0x3c5c67b7	0.013452462
184	0x3c96863b	0.018374553
185	0x3d11c020	0.035583615
186	0x3bfdfe74	0.0077512804
187	0xbc60aef8	-0.013713591
188	0xbb4a5128	-0.0030871127
189	0xbccb9269	-0.024850087
190	0xbc97b202	-0.018517498
191	0xbcbe77ec	-0.023250543
192	0xbc51e53a	-0.0128109995
193	0xbce04a53	-0.02737919
194	0x3cc94c1a	0.02457242
195	0xbc8cec95	-0.017202655
196	0xbc0c869e	-0.008577017
197	0xbc6a33c6	-0.01429457
198	0xbcc1583c	-0.023601644
199	0xbcd66279	-0.026170002
200	0xbbace5de	-0.0052764257
201	0x3be212e5	0.006899225
202	0xbb38baab	-0.0028187435
203	0x3d427d22	0.047482617
204	0x3d0d5cfa	0.034512497
205	0xbc3c6708	-0.011499174
206	0xbc770355	-0.015076478
207	0xbc9de4fe	-0.019274231
208	0xbcd07ec1	-0.025451066
209	0xbc88a964	-0.016682334
210	0xbcc23113	-0.023705041
211	0xbc51dfd4	-0.012809712
212	0x3bfeaa68	0.007771779
213	0xb9ab57a9	-0.00032680974
214	0x3cfc002a	0.030761797
215	0xbc90e784	-0.01768852
216	0x3d654897	0.05597743
217	0xbbf25b76	-0.007396157
218	0xbce5f55d	-0.0280711
219	0xbc887657	-0.016657991
220	0xbc984e1c	-0.018591933
221	0x3d1b0f19	0.037856195
222	0x3d236c2f	0.039898094
223	0x3c6dc9c3	0.014513436
224	0x3c915504	0.017740734
225	0xbce3c04b	-0.027801653
226	0x3bb0b976	0.0053932024
227	0x3a400135	0.00073243986
228	0x3c298995	0.0103477435
229	0x3c0ed9c1	0.008718909
230	0x3b85ed44	0.004087122
231	0x3d6cb5e7	0.057790663
232	0xbbca6f3b	-0.0061778105
233	0xbc09e829	-0.008417168
234	0xbca79970	-0.020458907
235	0x3c9a44ea	0.018831689
236	0x3c4fc317	0.01268079
237	0x3bcbf84f	0.006224669
238	0x3d1c64e6	0.03818216
239	0xbbb71505	-0.0055872225
240	0x3ce5d9fe	0.028058048
241	0xbd0fc134	-0.035096362
242	0x3d6ba902	0.057534225
243	0xbc6b85a8	-0.014375128
244	0xbc69dfa6	-0.014274513
245	0xbc879bb1	-0.016553732
246	0x3c9f2acf	0.019429592
247	0x3b9f9bef	0.0048708837
248	0xbbd309fe	-0.0064404
249	0xbcd5b555	-0.026087442
250	0x3cfc38ca	0.030788798
251	0xbd1ad483	-0.037800323
252	0x3d2ddba0	0.04244578
253	0xbd16b9ae	-0.03679817
254	0x3bd74042	0.0065689394
255	0xbcaf9aea	-0.021436173

action_model._discrete_distribution.branches.0.bias f4 [3]
0	0xbaabce12	-0.0013107678
1	0xbb160991	-0.0022893886
2	0x3bdebd0d	0.006797439

onnx::Div_52 f4 [500]
0	0x3efff6f5	0.499931
1	0x3efd926d	0.49525777
2	0x3e83a72d	0.25713482
3	0x3e83a72d	0.25713482
4	0x400f4733	2.2387207
5	0x3eaae4ef	0.33377787
6	0x3e70290b	0.23453157
7	0x3dfd8607	0.12379079
8	0x400ce910	2.201725
9	0x3e9bc3da	0.3042286
10	0x3e5c3f68	0.21508563
11	0x3e01b7da	0.1266779
12	0x4009137a	2.1418138
13	0x3e871285	0.26381317
14	0x3e3c1992	0.1836913
15	0x3e06102d	0.13092108
16	0x4005c697	2.090246
17	0x3e6c3cca	0.23070064
18	0x3e1d1935	0.15341647
19	0x3e18c4e3	0.14918856
20	0x40038bf8	2.055418
21	0x3e53e0a0	0.20691156
22	0x3e0cbf62	0.13744882
23	0x3e324eed	0.1741292
24	0x4002edb6	2.0457587
25	0x3e45a06f	0.19299482
26	0x3dfedd4f	0.12444555
27	0x3e3fbfc7	0.18725501
28	0x40032dd8	2.049673
29	0x3e3d5f2e	0.1849334
30	0x3dea8d47	0.11452728
31	0x3e532b31	0.20621945
32	0x4004d9e7	2.0757997
33	0x3e43552d	0.1907546
34	0x3de463c8	0.11151844
35	0x3e5f019d	0.21777959
36	0x4007fee1	2.1249316
37	0x3e551dd6	0.20812163
38	0x3de7e5eb	0.1132315
39	0x3e72810e	0.23682043
40	0x400c2f8c	2.190402
41	0x3e6ff0ee	0.23431751
42	0x3e0533c0	0.13008022
43	0x3e69ba08	0.22824872
44	0x40111401	2.266846
45	0x3e86c828	0.26324582
46	0x3e1be3d4	0.15223628
47	0x3e5437f0	0.20724463
48	0x40159f81	2.3378603
49	0x3e915ad1	0.283896
50	0x3e2afa22	0.1669698
51	0x3e3d42a1	0.18482448
52	0x401751ce	2.364368
53	0x3e96285c	0.29327667
54	0x3e502e4d	0.20330162
55	0x3e4289e4	0.18997914
56	0x40168094	2.3515978
57	0x3e8baea2	0.27281672
58	0x3e5e3cbb	0.21702854
59	0x3e3847db	0.1799616
60	0x4012ed05	2.2957165
61	0x3e6f908c	0.23394984
62	0x3e6f150b	0.23347871
63	0x3e2aee23	0.16692404
64	0x400efccd	2.2341797
65	0x3e4e3d63	0.20140605
66	0x3e6bca13	0.23026304
67	0x3e29fd00	0.16600418
68	0x400b2a80	2.174469
69	0x3e3a610a	0.1820108
70	0x3e5ccb2b	0.21561877
71	0x3e2a9de9	0.166618
72	0x40081ceb	2.126765
73	0x3e2e3e29	0.170159
74	0x3e4c8b3b	0.19974987
75	0x3e312ba3	0.17301802
76	0x400673c2	2.1008153
77	0x3e32c534	0.1745804
78	0x3e37a5c2	0.17934325
79	0x3e3e065e	0.18557116
80	0x4006acce	2.1042972
81	0x3e46eb76	0.19425759
82	0x3e2639a2	0.16232923
83	0x3e32475b	0.17410032
84	0x400782b1	2.1173518
85	0x3e639c04	0.22227484
86	0x3e2a65a9	0.16640343
87	0x3e228384	0.15870482
88	0x40092019	2.142584
89	0x3e88fb19	0.26754072
90	0x3e3868f4	0.18008786
91	0x3e1a0134	0.15039521
92	0x400c3070	2.1904564
93	0x3ea07e0f	0.31346175
94	0x3e47dd1b	0.19517939
95	0x3e07f2e1	0.13276245
96	0x400f061c	2.234748
97	0x3ea9f19d	0.3319215
98	0x3e587673	0.21138935
99	0x3df919f0	0.1216315
100	0x3effdddd	0.49973956
101	0x3efe1061	0.4962187
102	0x3e8642eb	0.2622293
103	0x3e8642eb	0.2622293
104	0x400c3790	2.1908913
105	0x3eae0690	0.33989382
106	0x3e7130d0	0.23553777
107	0x3dfed24b	0.12442454
108	0x40097a62	2.1480947
109	0x3e9e6f84	0.30944455
110	0x3e5d41bd	0.21607108
111	0x3e0249c8	0.12723458
112	0x4004ffa8	2.078104
113	0x3e88a037	0.26684734
114	0x3e3d17d5	0.18466122
115	0x3e06bc4a	0.13157764
116	0x40012815	2.0180714
117	0x3e6ddf11	0.23229624
118	0x3e1dd5f3	0.15413646
119	0x3e19b4a8	0.15010321
120	0x3ffd2ef8	1.9779959
121	0x3e552728	0.20815718
122	0x3e0d718e	0.13812849
123	0x3e339615	0.1753772
124	0x3ffb6f6c	1.9643378
125	0x3e46b23d	0.1940393
126	0x3dffaec3	0.12484505
127	0x3e411a21	0.18857624
128	0x3ffb9d9e	1.9657476
129	0x3e3e3806	0.18576059
130	0x3deb7df4	0.11498633
131	0x3e54dcbb	0.20787327
132	0x3ffeee8a	1.9916546
133	0x3e4400b9	0.191409
134	0x3de5bdf8	0.11217874
135	0x3e60bd33	0.21947174
136	0x4002cb98	2.0436764
137	0x3e55ff90	0.2089827
138	0x3de95ef8	0.11395067
139	0x3e745eca	0.23864284
140	0x40074125	2.113351
141	0x3e710e48	0.23540604
142	0x3e062a45	0.13102062
143	0x3e6b2032	0.229615
144	0x400c6964	2.1939325
145	0x3e87600a	0.2644046
146	0x3e1ce8c9	0.15323175
147	0x3e561527	0.20906506
148	0x40111e32	2.267468
149	0x3e9203ff	0.28518674
150	0x3e2c451a	0.16823235
151	0x3e3ebe94	0.18627387
152	0x4012ebd4	2.2956438
153	0x3e96e0d0	0.29468393
154	0x3e518ec4	0.20464617
155	0x3e43de72	0.19127825
156	0x4011cb14	2.27802
157	0x3e8c5d77	0.27415058
158	0x3e5fba08	0.21848309
159	0x3e394c31	0.18095471
160	0x400dc879	2.2153609
161	0x3e70c11d	0.23511167
162	0x3e70ae6e	0.2350404
163	0x3e2b91fe	0.1675491
164	0x400979a5	2.1480496
165	0x3e4f31b2	0.20233801
166	0x3e6d3718	0.23165548
167	0x3e2a95da	0.16658726
168	0x400565b9	2.0843337
169	0x3e3b2f6e	0.18279812
170	0x3e5e39c1	0.21701719
171	0x3e2b5e13	0.16735105
172	0x40023b03	2.0348518
173	0x3e2f01b9	0.17090501
174	0x3e4ddfd2	0.20104912
175	0x3e320df7	0.1738814
176	0x4000a895	2.0102894
177	0x3e339244	0.17536265
178	0x3e38c86e	0.18045208
179	0x3e3ee568	0.18642199
180	0x40011ef8	2.0175152
181	0x3e47fe8a	0.19530693
182	0x3e2707c4	0.16311556
183	0x3e330214	0.17481261
184	0x400268e7	2.0376527
185	0x3e650b55	0.22367604
186	0x3e2b2627	0.16713773
187	0x3e238d95	0.15971978
188	0x4004af2d	2.073192
189	0x3e89ffd8	0.26953006
190	0x3e397467	0.1811081
191	0x3e1abda1	0.151114
192	0x4008713b	2.131911
193	0x3ea1f8e6	0.31635207
194	0x3e491339	0.19636239
195	0x3e088d11	0.13335063
196	0x400bbb3c	2.1833029
197	0x3eac354c	0.33634412
198	0x3e59bab8	0.21262634
199	0x3dfa6c76	0.122277185
200	0x3effb54b	0.49943003
201	0x3efe8026	0.49707144
202	0x3e88ce49	0.26719883
203	0x3e88ce49	0.26719883
204	0x40093bbd	2.1442711
205	0x3eb18464	0.3467132
206	0x3e725181	0.23663904
207	0x3e00195a	0.12509671
208	0x40060002	2.0937505
209	0x3ea15364	0.31508934
210	0x3e5e39c5	0.21701725
211	0x3e02e5c3	0.1278296
212	0x4000a4ce	2.0100589
213	0x3e8a1ca7	0.26974985
214	0x3e3e065f	0.18557118
215	0x3e0757f2	0.13217142
216	0x3ff86c88	1.9408121
217	0x3e6fe0d4	0.23425609
218	0x3e1e84ba	0.15480319
219	0x3e1ab92c	0.151097
220	0x3ff27bc1	1.8944017
221	0x3e5655d6	0.20931181
222	0x3e0e22c7	0.13880454
223	0x3e34ad67	0.17644273
224	0x3ff02684	1.8761754
225	0x3e479a16	0.19492373
226	0x3e005032	0.12530592
227	0x3e426754	0.18984729
228	0x3fefed8d	1.874437
229	0x3e3f0c3c	0.18657011
230	0x3dec79a5	0.11546639
231	0x3e563a1e	0.20920607
232	0x3ff32cad	1.8998009
233	0x3e44d479	0.19221677
234	0x3de72238	0.112858236
235	0x3e626918	0.22110403
236	0x3ffa530d	1.9556595
237	0x3e56c483	0.20973401
238	0x3deac98c	0.11464223
239	0x3e75d2f8	0.2400626
240	0x4001e5d2	2.029652
241	0x3e7204db	0.23634665
242	0x3e072951	0.13199355
243	0x3e6c96c8	0.23104393
244	0x4007620f	2.11536
245	0x3e87f4c3	0.26553926
246	0x3e1de77a	0.15420333
247	0x3e57c2a6	0.21070346
248	0x400c4893	2.1919296
249	0x3e92b00e	0.28649944
250	0x3e2d79a8	0.1694094
251	0x3e406499	0.18788375
252	0x400e39fd	2.2222893
253	0x3e978b5d	0.29598513
254	0x3e5324f8	0.20619571
255	0x3e453a8a	0.19260612
